program(1.0)
[buildInfo = dict<tensor<string, []>, tensor<string, []>>({{"coremlc-component-MIL", "3304.5.2"}, {"coremlc-version", "3304.6.2"}})]
{
    func main<ios16>(tensor<fp16, [1, 128, 1, 3000]> melspectrogram_features) {
            tensor<string, []> var_116_pad_type_0 = const()[name = tensor<string, []>("op_116_pad_type_0"), val = tensor<string, []>("custom")];
            tensor<int32, [4]> var_116_pad_0 = const()[name = tensor<string, []>("op_116_pad_0"), val = tensor<int32, [4]>([0, 0, 1, 1])];
            tensor<int32, [2]> var_116_strides_0 = const()[name = tensor<string, []>("op_116_strides_0"), val = tensor<int32, [2]>([1, 1])];
            tensor<int32, [2]> var_116_dilations_0 = const()[name = tensor<string, []>("op_116_dilations_0"), val = tensor<int32, [2]>([1, 1])];
            tensor<int32, []> var_116_groups_0 = const()[name = tensor<string, []>("op_116_groups_0"), val = tensor<int32, []>(1)];
            tensor<fp16, [1280, 128, 1, 3]> var_85_to_fp16 = const()[name = tensor<string, []>("op_85_to_fp16"), val = tensor<fp16, [1280, 128, 1, 3]>(BLOBFILE(path = tensor<string, []>("@model_path/weights/weight.bin"), offset = tensor<uint64, []>(64)))];
            tensor<fp16, [1280]> var_97_to_fp16 = const()[name = tensor<string, []>("op_97_to_fp16"), val = tensor<fp16, [1280]>(BLOBFILE(path = tensor<string, []>("@model_path/weights/weight.bin"), offset = tensor<uint64, []>(983168)))];
            tensor<fp16, [1, 1280, 1, 3000]> var_116_cast_fp16 = conv(bias = var_97_to_fp16, dilations = var_116_dilations_0, groups = var_116_groups_0, pad = var_116_pad_0, pad_type = var_116_pad_type_0, strides = var_116_strides_0, weight = var_85_to_fp16, x = melspectrogram_features)[name = tensor<string, []>("op_116_cast_fp16")];
            tensor<string, []> var_154_pad_type_0 = const()[name = tensor<string, []>("op_154_pad_type_0"), val = tensor<string, []>("custom")];
            tensor<int32, [4]> var_154_pad_0 = const()[name = tensor<string, []>("op_154_pad_0"), val = tensor<int32, [4]>([0, 0, 1, 1])];
            tensor<int32, [2]> var_154_strides_0 = const()[name = tensor<string, []>("op_154_strides_0"), val = tensor<int32, [2]>([1, 1])];
            tensor<int32, [2]> var_154_dilations_0 = const()[name = tensor<string, []>("op_154_dilations_0"), val = tensor<int32, [2]>([1, 1])];
            tensor<int32, []> var_154_groups_0 = const()[name = tensor<string, []>("op_154_groups_0"), val = tensor<int32, []>(1)];
            tensor<fp16, [1280, 128, 1, 3]> op_129_to_fp16_palettized = constexpr_lut_to_dense()[indices = tensor<uint8, [245760]>(BLOBFILE(path = tensor<string, []>("@model_path/weights/weight.bin"), offset = tensor<uint64, []>(985792))), lut = tensor<fp16, [16]>(BLOBFILE(path = tensor<string, []>("@model_path/weights/weight.bin"), offset = tensor<uint64, []>(1231616))), name = tensor<string, []>("op_129_to_fp16_palettized"), shape = tensor<uint32, [4]>([1280, 128, 1, 3])];
            tensor<fp16, [1280]> var_135_to_fp16 = const()[name = tensor<string, []>("op_135_to_fp16"), val = tensor<fp16, [1280]>(BLOBFILE(path = tensor<string, []>("@model_path/weights/weight.bin"), offset = tensor<uint64, []>(1231744)))];
            tensor<fp16, [1, 1280, 1, 3000]> var_154_cast_fp16 = conv(bias = var_135_to_fp16, dilations = var_154_dilations_0, groups = var_154_groups_0, pad = var_154_pad_0, pad_type = var_154_pad_type_0, strides = var_154_strides_0, weight = op_129_to_fp16_palettized, x = melspectrogram_features)[name = tensor<string, []>("op_154_cast_fp16")];
            tensor<fp16, [1, 1280, 1, 3000]> var_156_cast_fp16 = add(x = var_116_cast_fp16, y = var_154_cast_fp16)[name = tensor<string, []>("op_156_cast_fp16")];
            tensor<string, []> hidden_states_1_mode_0 = const()[name = tensor<string, []>("hidden_states_1_mode_0"), val = tensor<string, []>("EXACT")];
            tensor<fp16, [1, 1280, 1, 3000]> hidden_states_1_cast_fp16 = gelu(mode = hidden_states_1_mode_0, x = var_156_cast_fp16)[name = tensor<string, []>("hidden_states_1_cast_fp16")];
            tensor<string, []> var_202_pad_type_0 = const()[name = tensor<string, []>("op_202_pad_type_0"), val = tensor<string, []>("custom")];
            tensor<int32, [4]> var_202_pad_0 = const()[name = tensor<string, []>("op_202_pad_0"), val = tensor<int32, [4]>([0, 0, 1, 1])];
            tensor<int32, [2]> var_202_strides_0 = const()[name = tensor<string, []>("op_202_strides_0"), val = tensor<int32, [2]>([2, 2])];
            tensor<int32, [2]> var_202_dilations_0 = const()[name = tensor<string, []>("op_202_dilations_0"), val = tensor<int32, [2]>([1, 1])];
            tensor<int32, []> var_202_groups_0 = const()[name = tensor<string, []>("op_202_groups_0"), val = tensor<int32, []>(1)];
            tensor<fp16, [1280, 1280, 1, 3]> var_171_to_fp16 = const()[name = tensor<string, []>("op_171_to_fp16"), val = tensor<fp16, [1280, 1280, 1, 3]>(BLOBFILE(path = tensor<string, []>("@model_path/weights/weight.bin"), offset = tensor<uint64, []>(1234368)))];
            tensor<fp16, [1, 1280, 1, 1500]> var_202_cast_fp16 = conv(bias = var_97_to_fp16, dilations = var_202_dilations_0, groups = var_202_groups_0, pad = var_202_pad_0, pad_type = var_202_pad_type_0, strides = var_202_strides_0, weight = var_171_to_fp16, x = hidden_states_1_cast_fp16)[name = tensor<string, []>("op_202_cast_fp16")];
            tensor<string, []> var_240_pad_type_0 = const()[name = tensor<string, []>("op_240_pad_type_0"), val = tensor<string, []>("custom")];
            tensor<int32, [4]> var_240_pad_0 = const()[name = tensor<string, []>("op_240_pad_0"), val = tensor<int32, [4]>([0, 0, 1, 1])];
            tensor<int32, [2]> var_240_strides_0 = const()[name = tensor<string, []>("op_240_strides_0"), val = tensor<int32, [2]>([2, 2])];
            tensor<int32, [2]> var_240_dilations_0 = const()[name = tensor<string, []>("op_240_dilations_0"), val = tensor<int32, [2]>([1, 1])];
            tensor<int32, []> var_240_groups_0 = const()[name = tensor<string, []>("op_240_groups_0"), val = tensor<int32, []>(1)];
            tensor<fp16, [1280, 1280, 1, 3]> op_215_to_fp16_palettized = constexpr_lut_to_dense()[indices = tensor<uint8, [2457600]>(BLOBFILE(path = tensor<string, []>("@model_path/weights/weight.bin"), offset = tensor<uint64, []>(11064832))), lut = tensor<fp16, [16]>(BLOBFILE(path = tensor<string, []>("@model_path/weights/weight.bin"), offset = tensor<uint64, []>(13522496))), name = tensor<string, []>("op_215_to_fp16_palettized"), shape = tensor<uint32, [4]>([1280, 1280, 1, 3])];
            tensor<fp16, [1280]> var_221_to_fp16 = const()[name = tensor<string, []>("op_221_to_fp16"), val = tensor<fp16, [1280]>(BLOBFILE(path = tensor<string, []>("@model_path/weights/weight.bin"), offset = tensor<uint64, []>(13522624)))];
            tensor<fp16, [1, 1280, 1, 1500]> var_240_cast_fp16 = conv(bias = var_221_to_fp16, dilations = var_240_dilations_0, groups = var_240_groups_0, pad = var_240_pad_0, pad_type = var_240_pad_type_0, strides = var_240_strides_0, weight = op_215_to_fp16_palettized, x = hidden_states_1_cast_fp16)[name = tensor<string, []>("op_240_cast_fp16")];
            tensor<fp16, [1, 1280, 1, 1500]> var_242_cast_fp16 = add(x = var_202_cast_fp16, y = var_240_cast_fp16)[name = tensor<string, []>("op_242_cast_fp16")];
            tensor<string, []> hidden_states_3_mode_0 = const()[name = tensor<string, []>("hidden_states_3_mode_0"), val = tensor<string, []>("EXACT")];
            tensor<fp16, [1, 1280, 1, 1500]> hidden_states_3_cast_fp16 = gelu(mode = hidden_states_3_mode_0, x = var_242_cast_fp16)[name = tensor<string, []>("hidden_states_3_cast_fp16")];
            tensor<fp16, [1, 1280, 1, 1500]> var_262_to_fp16 = const()[name = tensor<string, []>("op_262_to_fp16"), val = tensor<fp16, [1, 1280, 1, 1500]>(BLOBFILE(path = tensor<string, []>("@model_path/weights/weight.bin"), offset = tensor<uint64, []>(13525248)))];
            tensor<fp16, [1, 1280, 1, 1500]> inputs_1_cast_fp16 = add(x = hidden_states_3_cast_fp16, y = var_262_to_fp16)[name = tensor<string, []>("inputs_1_cast_fp16")];
            tensor<int32, []> var_276 = const()[name = tensor<string, []>("op_276"), val = tensor<int32, []>(3)];
            tensor<int32, [1]> out_1_axes_0 = const()[name = tensor<string, []>("out_1_axes_0"), val = tensor<int32, [1]>([1])];
            tensor<fp16, []> var_295_to_fp16 = const()[name = tensor<string, []>("op_295_to_fp16"), val = tensor<fp16, []>(0x1.5p-17)];
            tensor<fp16, [1, 1280, 1, 1500]> out_1_cast_fp16 = layer_norm(axes = out_1_axes_0, epsilon = var_295_to_fp16, x = inputs_1_cast_fp16)[name = tensor<string, []>("out_1_cast_fp16")];
            tensor<fp16, [1280]> obj_1_variance_0_to_fp16 = const()[name = tensor<string, []>("obj_1_variance_0_to_fp16"), val = tensor<fp16, [1280]>(BLOBFILE(path = tensor<string, []>("@model_path/weights/weight.bin"), offset = tensor<uint64, []>(17365312)))];
            tensor<fp16, [1280]> obj_1_gamma_0_to_fp16 = const()[name = tensor<string, []>("obj_1_gamma_0_to_fp16"), val = tensor<fp16, [1280]>(BLOBFILE(path = tensor<string, []>("@model_path/weights/weight.bin"), offset = tensor<uint64, []>(17367936)))];
            tensor<fp16, [1280]> obj_1_beta_0_to_fp16 = const()[name = tensor<string, []>("obj_1_beta_0_to_fp16"), val = tensor<fp16, [1280]>(BLOBFILE(path = tensor<string, []>("@model_path/weights/weight.bin"), offset = tensor<uint64, []>(17370560)))];
            tensor<fp16, []> obj_1_epsilon_0_to_fp16 = const()[name = tensor<string, []>("obj_1_epsilon_0_to_fp16"), val = tensor<fp16, []>(0x1.5p-17)];
            tensor<fp16, [1, 1280, 1, 1500]> obj_1_cast_fp16 = batch_norm(beta = obj_1_beta_0_to_fp16, epsilon = obj_1_epsilon_0_to_fp16, gamma = obj_1_gamma_0_to_fp16, mean = var_97_to_fp16, variance = obj_1_variance_0_to_fp16, x = out_1_cast_fp16)[name = tensor<string, []>("obj_1_cast_fp16")];
            tensor<string, []> var_317_pad_type_0 = const()[name = tensor<string, []>("op_317_pad_type_0"), val = tensor<string, []>("valid")];
            tensor<int32, [2]> var_317_strides_0 = const()[name = tensor<string, []>("op_317_strides_0"), val = tensor<int32, [2]>([1, 1])];
            tensor<int32, [4]> var_317_pad_0 = const()[name = tensor<string, []>("op_317_pad_0"), val = tensor<int32, [4]>([0, 0, 0, 0])];
            tensor<int32, [2]> var_317_dilations_0 = const()[name = tensor<string, []>("op_317_dilations_0"), val = tensor<int32, [2]>([1, 1])];
            tensor<int32, []> var_317_groups_0 = const()[name = tensor<string, []>("op_317_groups_0"), val = tensor<int32, []>(1)];
            tensor<fp16, [1280, 1280, 1, 1]> layers_0_self_attn_q_proj_inlier_module_weight_to_fp16_palettized = constexpr_lut_to_dense()[indices = tensor<uint8, [819200]>(BLOBFILE(path = tensor<string, []>("@model_path/weights/weight.bin"), offset = tensor<uint64, []>(17373184))), lut = tensor<fp16, [16]>(BLOBFILE(path = tensor<string, []>("@model_path/weights/weight.bin"), offset = tensor<uint64, []>(18192448))), name = tensor<string, []>("layers_0_self_attn_q_proj_inlier_module_weight_to_fp16_palettized"), shape = tensor<uint32, [4]>([1280, 1280, 1, 1])];
            tensor<fp16, [1280]> layers_0_self_attn_q_proj_inlier_module_bias_to_fp16 = const()[name = tensor<string, []>("layers_0_self_attn_q_proj_inlier_module_bias_to_fp16"), val = tensor<fp16, [1280]>(BLOBFILE(path = tensor<string, []>("@model_path/weights/weight.bin"), offset = tensor<uint64, []>(18192576)))];
            tensor<fp16, [1, 1280, 1, 1500]> var_317_cast_fp16 = conv(bias = layers_0_self_attn_q_proj_inlier_module_bias_to_fp16, dilations = var_317_dilations_0, groups = var_317_groups_0, pad = var_317_pad_0, pad_type = var_317_pad_type_0, strides = var_317_strides_0, weight = layers_0_self_attn_q_proj_inlier_module_weight_to_fp16_palettized, x = obj_1_cast_fp16)[name = tensor<string, []>("op_317_cast_fp16")];
            tensor<string, []> var_323_pad_type_0 = const()[name = tensor<string, []>("op_323_pad_type_0"), val = tensor<string, []>("valid")];
            tensor<int32, [2]> var_323_strides_0 = const()[name = tensor<string, []>("op_323_strides_0"), val = tensor<int32, [2]>([1, 1])];
            tensor<int32, [4]> var_323_pad_0 = const()[name = tensor<string, []>("op_323_pad_0"), val = tensor<int32, [4]>([0, 0, 0, 0])];
            tensor<int32, [2]> var_323_dilations_0 = const()[name = tensor<string, []>("op_323_dilations_0"), val = tensor<int32, [2]>([1, 1])];
            tensor<int32, []> var_323_groups_0 = const()[name = tensor<string, []>("op_323_groups_0"), val = tensor<int32, []>(1)];
            tensor<fp16, [1280, 1280, 1, 1]> layers_0_self_attn_q_proj_outlier_module_weight_to_fp16_sparsified = constexpr_sparse_to_dense()[mask = tensor<uint8, [204800]>(BLOBFILE(path = tensor<string, []>("@model_path/weights/weight.bin"), offset = tensor<uint64, []>(18275392))), name = tensor<string, []>("layers_0_self_attn_q_proj_outlier_module_weight_to_fp16_sparsified"), nonzero_data = tensor<fp16, [40058]>(BLOBFILE(path = tensor<string, []>("@model_path/weights/weight.bin"), offset = tensor<uint64, []>(18195200))), shape = tensor<uint32, [4]>([1280, 1280, 1, 1])];
            tensor<fp16, [1, 1280, 1, 1500]> var_323_cast_fp16 = conv(dilations = var_323_dilations_0, groups = var_323_groups_0, pad = var_323_pad_0, pad_type = var_323_pad_type_0, strides = var_323_strides_0, weight = layers_0_self_attn_q_proj_outlier_module_weight_to_fp16_sparsified, x = obj_1_cast_fp16)[name = tensor<string, []>("op_323_cast_fp16")];
            tensor<fp16, [1, 1280, 1, 1500]> query_1_cast_fp16 = add(x = var_317_cast_fp16, y = var_323_cast_fp16)[name = tensor<string, []>("query_1_cast_fp16")];
            tensor<string, []> var_332_pad_type_0 = const()[name = tensor<string, []>("op_332_pad_type_0"), val = tensor<string, []>("valid")];
            tensor<int32, [2]> var_332_strides_0 = const()[name = tensor<string, []>("op_332_strides_0"), val = tensor<int32, [2]>([1, 1])];
            tensor<int32, [4]> var_332_pad_0 = const()[name = tensor<string, []>("op_332_pad_0"), val = tensor<int32, [4]>([0, 0, 0, 0])];
            tensor<int32, [2]> var_332_dilations_0 = const()[name = tensor<string, []>("op_332_dilations_0"), val = tensor<int32, [2]>([1, 1])];
            tensor<int32, []> var_332_groups_0 = const()[name = tensor<string, []>("op_332_groups_0"), val = tensor<int32, []>(1)];
            tensor<fp16, [1280, 1280, 1, 1]> layers_0_self_attn_k_proj_inlier_module_weight_to_fp16_palettized = constexpr_lut_to_dense()[indices = tensor<uint8, [819200]>(BLOBFILE(path = tensor<string, []>("@model_path/weights/weight.bin"), offset = tensor<uint64, []>(18480256))), lut = tensor<fp16, [16]>(BLOBFILE(path = tensor<string, []>("@model_path/weights/weight.bin"), offset = tensor<uint64, []>(19299520))), name = tensor<string, []>("layers_0_self_attn_k_proj_inlier_module_weight_to_fp16_palettized"), shape = tensor<uint32, [4]>([1280, 1280, 1, 1])];
            tensor<fp16, [1, 1280, 1, 1500]> var_332_cast_fp16 = conv(dilations = var_332_dilations_0, groups = var_332_groups_0, pad = var_332_pad_0, pad_type = var_332_pad_type_0, strides = var_332_strides_0, weight = layers_0_self_attn_k_proj_inlier_module_weight_to_fp16_palettized, x = obj_1_cast_fp16)[name = tensor<string, []>("op_332_cast_fp16")];
            tensor<string, []> var_338_pad_type_0 = const()[name = tensor<string, []>("op_338_pad_type_0"), val = tensor<string, []>("valid")];
            tensor<int32, [2]> var_338_strides_0 = const()[name = tensor<string, []>("op_338_strides_0"), val = tensor<int32, [2]>([1, 1])];
            tensor<int32, [4]> var_338_pad_0 = const()[name = tensor<string, []>("op_338_pad_0"), val = tensor<int32, [4]>([0, 0, 0, 0])];
            tensor<int32, [2]> var_338_dilations_0 = const()[name = tensor<string, []>("op_338_dilations_0"), val = tensor<int32, [2]>([1, 1])];
            tensor<int32, []> var_338_groups_0 = const()[name = tensor<string, []>("op_338_groups_0"), val = tensor<int32, []>(1)];
            tensor<fp16, [1280, 1280, 1, 1]> layers_0_self_attn_k_proj_outlier_module_weight_to_fp16_sparsified = constexpr_sparse_to_dense()[mask = tensor<uint8, [204800]>(BLOBFILE(path = tensor<string, []>("@model_path/weights/weight.bin"), offset = tensor<uint64, []>(19363520))), name = tensor<string, []>("layers_0_self_attn_k_proj_outlier_module_weight_to_fp16_sparsified"), nonzero_data = tensor<fp16, [31892]>(BLOBFILE(path = tensor<string, []>("@model_path/weights/weight.bin"), offset = tensor<uint64, []>(19299648))), shape = tensor<uint32, [4]>([1280, 1280, 1, 1])];
            tensor<fp16, [1, 1280, 1, 1500]> var_338_cast_fp16 = conv(dilations = var_338_dilations_0, groups = var_338_groups_0, pad = var_338_pad_0, pad_type = var_338_pad_type_0, strides = var_338_strides_0, weight = layers_0_self_attn_k_proj_outlier_module_weight_to_fp16_sparsified, x = obj_1_cast_fp16)[name = tensor<string, []>("op_338_cast_fp16")];
            tensor<fp16, [1, 1280, 1, 1500]> key_1_cast_fp16 = add(x = var_332_cast_fp16, y = var_338_cast_fp16)[name = tensor<string, []>("key_1_cast_fp16")];
            tensor<string, []> var_348_pad_type_0 = const()[name = tensor<string, []>("op_348_pad_type_0"), val = tensor<string, []>("valid")];
            tensor<int32, [2]> var_348_strides_0 = const()[name = tensor<string, []>("op_348_strides_0"), val = tensor<int32, [2]>([1, 1])];
            tensor<int32, [4]> var_348_pad_0 = const()[name = tensor<string, []>("op_348_pad_0"), val = tensor<int32, [4]>([0, 0, 0, 0])];
            tensor<int32, [2]> var_348_dilations_0 = const()[name = tensor<string, []>("op_348_dilations_0"), val = tensor<int32, [2]>([1, 1])];
            tensor<int32, []> var_348_groups_0 = const()[name = tensor<string, []>("op_348_groups_0"), val = tensor<int32, []>(1)];
            tensor<fp16, [1280, 1280, 1, 1]> layers_0_self_attn_v_proj_inlier_module_weight_to_fp16_palettized = constexpr_lut_to_dense()[indices = tensor<uint8, [819200]>(BLOBFILE(path = tensor<string, []>("@model_path/weights/weight.bin"), offset = tensor<uint64, []>(19568384))), lut = tensor<fp16, [16]>(BLOBFILE(path = tensor<string, []>("@model_path/weights/weight.bin"), offset = tensor<uint64, []>(20387648))), name = tensor<string, []>("layers_0_self_attn_v_proj_inlier_module_weight_to_fp16_palettized"), shape = tensor<uint32, [4]>([1280, 1280, 1, 1])];
            tensor<fp16, [1280]> layers_0_self_attn_v_proj_inlier_module_bias_to_fp16 = const()[name = tensor<string, []>("layers_0_self_attn_v_proj_inlier_module_bias_to_fp16"), val = tensor<fp16, [1280]>(BLOBFILE(path = tensor<string, []>("@model_path/weights/weight.bin"), offset = tensor<uint64, []>(20387776)))];
            tensor<fp16, [1, 1280, 1, 1500]> var_348_cast_fp16 = conv(bias = layers_0_self_attn_v_proj_inlier_module_bias_to_fp16, dilations = var_348_dilations_0, groups = var_348_groups_0, pad = var_348_pad_0, pad_type = var_348_pad_type_0, strides = var_348_strides_0, weight = layers_0_self_attn_v_proj_inlier_module_weight_to_fp16_palettized, x = obj_1_cast_fp16)[name = tensor<string, []>("op_348_cast_fp16")];
            tensor<string, []> var_354_pad_type_0 = const()[name = tensor<string, []>("op_354_pad_type_0"), val = tensor<string, []>("valid")];
            tensor<int32, [2]> var_354_strides_0 = const()[name = tensor<string, []>("op_354_strides_0"), val = tensor<int32, [2]>([1, 1])];
            tensor<int32, [4]> var_354_pad_0 = const()[name = tensor<string, []>("op_354_pad_0"), val = tensor<int32, [4]>([0, 0, 0, 0])];
            tensor<int32, [2]> var_354_dilations_0 = const()[name = tensor<string, []>("op_354_dilations_0"), val = tensor<int32, [2]>([1, 1])];
            tensor<int32, []> var_354_groups_0 = const()[name = tensor<string, []>("op_354_groups_0"), val = tensor<int32, []>(1)];
            tensor<fp16, [1280, 1280, 1, 1]> layers_0_self_attn_v_proj_outlier_module_weight_to_fp16_sparsified = constexpr_sparse_to_dense()[mask = tensor<uint8, [204800]>(BLOBFILE(path = tensor<string, []>("@model_path/weights/weight.bin"), offset = tensor<uint64, []>(20474048))), name = tensor<string, []>("layers_0_self_attn_v_proj_outlier_module_weight_to_fp16_sparsified"), nonzero_data = tensor<fp16, [41792]>(BLOBFILE(path = tensor<string, []>("@model_path/weights/weight.bin"), offset = tensor<uint64, []>(20390400))), shape = tensor<uint32, [4]>([1280, 1280, 1, 1])];
            tensor<fp16, [1, 1280, 1, 1500]> var_354_cast_fp16 = conv(dilations = var_354_dilations_0, groups = var_354_groups_0, pad = var_354_pad_0, pad_type = var_354_pad_type_0, strides = var_354_strides_0, weight = layers_0_self_attn_v_proj_outlier_module_weight_to_fp16_sparsified, x = obj_1_cast_fp16)[name = tensor<string, []>("op_354_cast_fp16")];
            tensor<fp16, [1, 1280, 1, 1500]> value_1_cast_fp16 = add(x = var_348_cast_fp16, y = var_354_cast_fp16)[name = tensor<string, []>("value_1_cast_fp16")];
            tensor<int32, [4]> var_357 = const()[name = tensor<string, []>("op_357"), val = tensor<int32, [4]>([1, 20, 64, -1])];
            tensor<fp16, [1, 20, 64, 1500]> mh_q_1_cast_fp16 = reshape(shape = var_357, x = query_1_cast_fp16)[name = tensor<string, []>("mh_q_1_cast_fp16")];
            tensor<fp16, []> var_359_to_fp16 = const()[name = tensor<string, []>("op_359_to_fp16"), val = tensor<fp16, []>(0x1p-3)];
            tensor<fp16, [1, 20, 64, 1500]> var_360_cast_fp16 = mul(x = mh_q_1_cast_fp16, y = var_359_to_fp16)[name = tensor<string, []>("op_360_cast_fp16")];
            tensor<int32, [4]> var_361 = const()[name = tensor<string, []>("op_361"), val = tensor<int32, [4]>([1, 20, 64, -1])];
            tensor<fp16, [1, 20, 64, 1500]> var_362_cast_fp16 = reshape(shape = var_361, x = key_1_cast_fp16)[name = tensor<string, []>("op_362_cast_fp16")];
            tensor<bool, []> mh_w_1_transpose_x_0 = const()[name = tensor<string, []>("mh_w_1_transpose_x_0"), val = tensor<bool, []>(true)];
            tensor<bool, []> mh_w_1_transpose_y_0 = const()[name = tensor<string, []>("mh_w_1_transpose_y_0"), val = tensor<bool, []>(false)];
            tensor<fp16, [1, 20, 1500, 1500]> mh_w_1_cast_fp16 = matmul(transpose_x = mh_w_1_transpose_x_0, transpose_y = mh_w_1_transpose_y_0, x = var_360_cast_fp16, y = var_362_cast_fp16)[name = tensor<string, []>("mh_w_1_cast_fp16")];
            tensor<fp16, [1, 20, 1500, 1500]> var_365_cast_fp16 = softmax(axis = var_276, x = mh_w_1_cast_fp16)[name = tensor<string, []>("op_365_cast_fp16")];
            tensor<int32, [4]> var_366 = const()[name = tensor<string, []>("op_366"), val = tensor<int32, [4]>([1, 20, 64, -1])];
            tensor<fp16, [1, 20, 64, 1500]> var_367_cast_fp16 = reshape(shape = var_366, x = value_1_cast_fp16)[name = tensor<string, []>("op_367_cast_fp16")];
            tensor<bool, []> attn_1_transpose_x_0 = const()[name = tensor<string, []>("attn_1_transpose_x_0"), val = tensor<bool, []>(false)];
            tensor<bool, []> attn_1_transpose_y_0 = const()[name = tensor<string, []>("attn_1_transpose_y_0"), val = tensor<bool, []>(true)];
            tensor<fp16, [1, 20, 64, 1500]> attn_1_cast_fp16 = matmul(transpose_x = attn_1_transpose_x_0, transpose_y = attn_1_transpose_y_0, x = var_367_cast_fp16, y = var_365_cast_fp16)[name = tensor<string, []>("attn_1_cast_fp16")];
            tensor<int32, [4]> var_370 = const()[name = tensor<string, []>("op_370"), val = tensor<int32, [4]>([1, 1280, 1, -1])];
            tensor<fp16, [1, 1280, 1, 1500]> input_1_cast_fp16 = reshape(shape = var_370, x = attn_1_cast_fp16)[name = tensor<string, []>("input_1_cast_fp16")];
            tensor<string, []> var_380_pad_type_0 = const()[name = tensor<string, []>("op_380_pad_type_0"), val = tensor<string, []>("valid")];
            tensor<int32, [2]> var_380_strides_0 = const()[name = tensor<string, []>("op_380_strides_0"), val = tensor<int32, [2]>([1, 1])];
            tensor<int32, [4]> var_380_pad_0 = const()[name = tensor<string, []>("op_380_pad_0"), val = tensor<int32, [4]>([0, 0, 0, 0])];
            tensor<int32, [2]> var_380_dilations_0 = const()[name = tensor<string, []>("op_380_dilations_0"), val = tensor<int32, [2]>([1, 1])];
            tensor<int32, []> var_380_groups_0 = const()[name = tensor<string, []>("op_380_groups_0"), val = tensor<int32, []>(1)];
            tensor<fp16, [1280, 1280, 1, 1]> layers_0_self_attn_o_proj_inlier_module_weight_to_fp16_palettized = constexpr_lut_to_dense()[indices = tensor<uint8, [819200]>(BLOBFILE(path = tensor<string, []>("@model_path/weights/weight.bin"), offset = tensor<uint64, []>(20678912))), lut = tensor<fp16, [16]>(BLOBFILE(path = tensor<string, []>("@model_path/weights/weight.bin"), offset = tensor<uint64, []>(21498176))), name = tensor<string, []>("layers_0_self_attn_o_proj_inlier_module_weight_to_fp16_palettized"), shape = tensor<uint32, [4]>([1280, 1280, 1, 1])];
            tensor<fp16, [1280]> layers_0_self_attn_o_proj_inlier_module_bias_to_fp16 = const()[name = tensor<string, []>("layers_0_self_attn_o_proj_inlier_module_bias_to_fp16"), val = tensor<fp16, [1280]>(BLOBFILE(path = tensor<string, []>("@model_path/weights/weight.bin"), offset = tensor<uint64, []>(21498304)))];
            tensor<fp16, [1, 1280, 1, 1500]> var_380_cast_fp16 = conv(bias = layers_0_self_attn_o_proj_inlier_module_bias_to_fp16, dilations = var_380_dilations_0, groups = var_380_groups_0, pad = var_380_pad_0, pad_type = var_380_pad_type_0, strides = var_380_strides_0, weight = layers_0_self_attn_o_proj_inlier_module_weight_to_fp16_palettized, x = input_1_cast_fp16)[name = tensor<string, []>("op_380_cast_fp16")];
            tensor<string, []> var_386_pad_type_0 = const()[name = tensor<string, []>("op_386_pad_type_0"), val = tensor<string, []>("valid")];
            tensor<int32, [2]> var_386_strides_0 = const()[name = tensor<string, []>("op_386_strides_0"), val = tensor<int32, [2]>([1, 1])];
            tensor<int32, [4]> var_386_pad_0 = const()[name = tensor<string, []>("op_386_pad_0"), val = tensor<int32, [4]>([0, 0, 0, 0])];
            tensor<int32, [2]> var_386_dilations_0 = const()[name = tensor<string, []>("op_386_dilations_0"), val = tensor<int32, [2]>([1, 1])];
            tensor<int32, []> var_386_groups_0 = const()[name = tensor<string, []>("op_386_groups_0"), val = tensor<int32, []>(1)];
            tensor<fp16, [1280, 1280, 1, 1]> layers_0_self_attn_o_proj_outlier_module_weight_to_fp16_sparsified = constexpr_sparse_to_dense()[mask = tensor<uint8, [204800]>(BLOBFILE(path = tensor<string, []>("@model_path/weights/weight.bin"), offset = tensor<uint64, []>(21553024))), name = tensor<string, []>("layers_0_self_attn_o_proj_outlier_module_weight_to_fp16_sparsified"), nonzero_data = tensor<fp16, [25985]>(BLOBFILE(path = tensor<string, []>("@model_path/weights/weight.bin"), offset = tensor<uint64, []>(21500928))), shape = tensor<uint32, [4]>([1280, 1280, 1, 1])];
            tensor<fp16, [1, 1280, 1, 1500]> var_386_cast_fp16 = conv(dilations = var_386_dilations_0, groups = var_386_groups_0, pad = var_386_pad_0, pad_type = var_386_pad_type_0, strides = var_386_strides_0, weight = layers_0_self_attn_o_proj_outlier_module_weight_to_fp16_sparsified, x = input_1_cast_fp16)[name = tensor<string, []>("op_386_cast_fp16")];
            tensor<fp16, [1, 1280, 1, 1500]> obj_3_cast_fp16 = add(x = var_380_cast_fp16, y = var_386_cast_fp16)[name = tensor<string, []>("obj_3_cast_fp16")];
            tensor<fp16, [1, 1280, 1, 1500]> inputs_3_cast_fp16 = add(x = inputs_1_cast_fp16, y = obj_3_cast_fp16)[name = tensor<string, []>("inputs_3_cast_fp16")];
            tensor<int32, [1]> out_3_axes_0 = const()[name = tensor<string, []>("out_3_axes_0"), val = tensor<int32, [1]>([1])];
            tensor<fp16, []> var_397_to_fp16 = const()[name = tensor<string, []>("op_397_to_fp16"), val = tensor<fp16, []>(0x1.5p-17)];
            tensor<fp16, [1, 1280, 1, 1500]> out_3_cast_fp16 = layer_norm(axes = out_3_axes_0, epsilon = var_397_to_fp16, x = inputs_3_cast_fp16)[name = tensor<string, []>("out_3_cast_fp16")];
            tensor<fp16, [1280]> input_3_gamma_0_to_fp16 = const()[name = tensor<string, []>("input_3_gamma_0_to_fp16"), val = tensor<fp16, [1280]>(BLOBFILE(path = tensor<string, []>("@model_path/weights/weight.bin"), offset = tensor<uint64, []>(21757888)))];
            tensor<fp16, [1280]> input_3_beta_0_to_fp16 = const()[name = tensor<string, []>("input_3_beta_0_to_fp16"), val = tensor<fp16, [1280]>(BLOBFILE(path = tensor<string, []>("@model_path/weights/weight.bin"), offset = tensor<uint64, []>(21760512)))];
            tensor<fp16, []> input_3_epsilon_0_to_fp16 = const()[name = tensor<string, []>("input_3_epsilon_0_to_fp16"), val = tensor<fp16, []>(0x1.5p-17)];
            tensor<fp16, [1, 1280, 1, 1500]> input_3_cast_fp16 = batch_norm(beta = input_3_beta_0_to_fp16, epsilon = input_3_epsilon_0_to_fp16, gamma = input_3_gamma_0_to_fp16, mean = var_97_to_fp16, variance = obj_1_variance_0_to_fp16, x = out_3_cast_fp16)[name = tensor<string, []>("input_3_cast_fp16")];
            tensor<string, []> var_415_pad_type_0 = const()[name = tensor<string, []>("op_415_pad_type_0"), val = tensor<string, []>("valid")];
            tensor<int32, [2]> var_415_strides_0 = const()[name = tensor<string, []>("op_415_strides_0"), val = tensor<int32, [2]>([1, 1])];
            tensor<int32, [4]> var_415_pad_0 = const()[name = tensor<string, []>("op_415_pad_0"), val = tensor<int32, [4]>([0, 0, 0, 0])];
            tensor<int32, [2]> var_415_dilations_0 = const()[name = tensor<string, []>("op_415_dilations_0"), val = tensor<int32, [2]>([1, 1])];
            tensor<int32, []> var_415_groups_0 = const()[name = tensor<string, []>("op_415_groups_0"), val = tensor<int32, []>(1)];
            tensor<fp16, [5120, 1280, 1, 1]> layers_0_fc1_inlier_module_weight_to_fp16_palettized = constexpr_lut_to_dense()[indices = tensor<uint8, [3276800]>(BLOBFILE(path = tensor<string, []>("@model_path/weights/weight.bin"), offset = tensor<uint64, []>(21763136))), lut = tensor<fp16, [16]>(BLOBFILE(path = tensor<string, []>("@model_path/weights/weight.bin"), offset = tensor<uint64, []>(25040000))), name = tensor<string, []>("layers_0_fc1_inlier_module_weight_to_fp16_palettized"), shape = tensor<uint32, [4]>([5120, 1280, 1, 1])];
            tensor<fp16, [5120]> layers_0_fc1_inlier_module_bias_to_fp16 = const()[name = tensor<string, []>("layers_0_fc1_inlier_module_bias_to_fp16"), val = tensor<fp16, [5120]>(BLOBFILE(path = tensor<string, []>("@model_path/weights/weight.bin"), offset = tensor<uint64, []>(25040128)))];
            tensor<fp16, [1, 5120, 1, 1500]> var_415_cast_fp16 = conv(bias = layers_0_fc1_inlier_module_bias_to_fp16, dilations = var_415_dilations_0, groups = var_415_groups_0, pad = var_415_pad_0, pad_type = var_415_pad_type_0, strides = var_415_strides_0, weight = layers_0_fc1_inlier_module_weight_to_fp16_palettized, x = input_3_cast_fp16)[name = tensor<string, []>("op_415_cast_fp16")];
            tensor<string, []> var_421_pad_type_0 = const()[name = tensor<string, []>("op_421_pad_type_0"), val = tensor<string, []>("valid")];
            tensor<int32, [2]> var_421_strides_0 = const()[name = tensor<string, []>("op_421_strides_0"), val = tensor<int32, [2]>([1, 1])];
            tensor<int32, [4]> var_421_pad_0 = const()[name = tensor<string, []>("op_421_pad_0"), val = tensor<int32, [4]>([0, 0, 0, 0])];
            tensor<int32, [2]> var_421_dilations_0 = const()[name = tensor<string, []>("op_421_dilations_0"), val = tensor<int32, [2]>([1, 1])];
            tensor<int32, []> var_421_groups_0 = const()[name = tensor<string, []>("op_421_groups_0"), val = tensor<int32, []>(1)];
            tensor<fp16, [5120, 1280, 1, 1]> layers_0_fc1_outlier_module_weight_to_fp16_sparsified = constexpr_sparse_to_dense()[mask = tensor<uint8, [819200]>(BLOBFILE(path = tensor<string, []>("@model_path/weights/weight.bin"), offset = tensor<uint64, []>(25353152))), name = tensor<string, []>("layers_0_fc1_outlier_module_weight_to_fp16_sparsified"), nonzero_data = tensor<fp16, [151326]>(BLOBFILE(path = tensor<string, []>("@model_path/weights/weight.bin"), offset = tensor<uint64, []>(25050432))), shape = tensor<uint32, [4]>([5120, 1280, 1, 1])];
            tensor<fp16, [1, 5120, 1, 1500]> var_421_cast_fp16 = conv(dilations = var_421_dilations_0, groups = var_421_groups_0, pad = var_421_pad_0, pad_type = var_421_pad_type_0, strides = var_421_strides_0, weight = layers_0_fc1_outlier_module_weight_to_fp16_sparsified, x = input_3_cast_fp16)[name = tensor<string, []>("op_421_cast_fp16")];
            tensor<fp16, [1, 5120, 1, 1500]> input_5_cast_fp16 = add(x = var_415_cast_fp16, y = var_421_cast_fp16)[name = tensor<string, []>("input_5_cast_fp16")];
            tensor<string, []> input_7_mode_0 = const()[name = tensor<string, []>("input_7_mode_0"), val = tensor<string, []>("EXACT")];
            tensor<fp16, [1, 5120, 1, 1500]> input_7_cast_fp16 = gelu(mode = input_7_mode_0, x = input_5_cast_fp16)[name = tensor<string, []>("input_7_cast_fp16")];
            tensor<string, []> var_432_pad_type_0 = const()[name = tensor<string, []>("op_432_pad_type_0"), val = tensor<string, []>("valid")];
            tensor<int32, [2]> var_432_strides_0 = const()[name = tensor<string, []>("op_432_strides_0"), val = tensor<int32, [2]>([1, 1])];
            tensor<int32, [4]> var_432_pad_0 = const()[name = tensor<string, []>("op_432_pad_0"), val = tensor<int32, [4]>([0, 0, 0, 0])];
            tensor<int32, [2]> var_432_dilations_0 = const()[name = tensor<string, []>("op_432_dilations_0"), val = tensor<int32, [2]>([1, 1])];
            tensor<int32, []> var_432_groups_0 = const()[name = tensor<string, []>("op_432_groups_0"), val = tensor<int32, []>(1)];
            tensor<fp16, [1280, 5120, 1, 1]> layers_0_fc2_inlier_module_weight_to_fp16_palettized = constexpr_lut_to_dense()[indices = tensor<uint8, [3276800]>(BLOBFILE(path = tensor<string, []>("@model_path/weights/weight.bin"), offset = tensor<uint64, []>(26172416))), lut = tensor<fp16, [16]>(BLOBFILE(path = tensor<string, []>("@model_path/weights/weight.bin"), offset = tensor<uint64, []>(29449280))), name = tensor<string, []>("layers_0_fc2_inlier_module_weight_to_fp16_palettized"), shape = tensor<uint32, [4]>([1280, 5120, 1, 1])];
            tensor<fp16, [1280]> layers_0_fc2_inlier_module_bias_to_fp16 = const()[name = tensor<string, []>("layers_0_fc2_inlier_module_bias_to_fp16"), val = tensor<fp16, [1280]>(BLOBFILE(path = tensor<string, []>("@model_path/weights/weight.bin"), offset = tensor<uint64, []>(29449408)))];
            tensor<fp16, [1, 1280, 1, 1500]> var_432_cast_fp16 = conv(bias = layers_0_fc2_inlier_module_bias_to_fp16, dilations = var_432_dilations_0, groups = var_432_groups_0, pad = var_432_pad_0, pad_type = var_432_pad_type_0, strides = var_432_strides_0, weight = layers_0_fc2_inlier_module_weight_to_fp16_palettized, x = input_7_cast_fp16)[name = tensor<string, []>("op_432_cast_fp16")];
            tensor<string, []> var_438_pad_type_0 = const()[name = tensor<string, []>("op_438_pad_type_0"), val = tensor<string, []>("valid")];
            tensor<int32, [2]> var_438_strides_0 = const()[name = tensor<string, []>("op_438_strides_0"), val = tensor<int32, [2]>([1, 1])];
            tensor<int32, [4]> var_438_pad_0 = const()[name = tensor<string, []>("op_438_pad_0"), val = tensor<int32, [4]>([0, 0, 0, 0])];
            tensor<int32, [2]> var_438_dilations_0 = const()[name = tensor<string, []>("op_438_dilations_0"), val = tensor<int32, [2]>([1, 1])];
            tensor<int32, []> var_438_groups_0 = const()[name = tensor<string, []>("op_438_groups_0"), val = tensor<int32, []>(1)];
            tensor<fp16, [1280, 5120, 1, 1]> layers_0_fc2_outlier_module_weight_to_fp16_sparsified = constexpr_sparse_to_dense()[mask = tensor<uint8, [819200]>(BLOBFILE(path = tensor<string, []>("@model_path/weights/weight.bin"), offset = tensor<uint64, []>(29689088))), name = tensor<string, []>("layers_0_fc2_outlier_module_weight_to_fp16_sparsified"), nonzero_data = tensor<fp16, [118467]>(BLOBFILE(path = tensor<string, []>("@model_path/weights/weight.bin"), offset = tensor<uint64, []>(29452032))), shape = tensor<uint32, [4]>([1280, 5120, 1, 1])];
            tensor<fp16, [1, 1280, 1, 1500]> var_438_cast_fp16 = conv(dilations = var_438_dilations_0, groups = var_438_groups_0, pad = var_438_pad_0, pad_type = var_438_pad_type_0, strides = var_438_strides_0, weight = layers_0_fc2_outlier_module_weight_to_fp16_sparsified, x = input_7_cast_fp16)[name = tensor<string, []>("op_438_cast_fp16")];
            tensor<fp16, [1, 1280, 1, 1500]> hidden_states_5_cast_fp16 = add(x = var_432_cast_fp16, y = var_438_cast_fp16)[name = tensor<string, []>("hidden_states_5_cast_fp16")];
            tensor<fp16, [1, 1280, 1, 1500]> inputs_5_cast_fp16 = add(x = inputs_3_cast_fp16, y = hidden_states_5_cast_fp16)[name = tensor<string, []>("inputs_5_cast_fp16")];
            tensor<int32, []> var_448 = const()[name = tensor<string, []>("op_448"), val = tensor<int32, []>(3)];
            tensor<int32, [1]> out_5_axes_0 = const()[name = tensor<string, []>("out_5_axes_0"), val = tensor<int32, [1]>([1])];
            tensor<fp16, []> var_467_to_fp16 = const()[name = tensor<string, []>("op_467_to_fp16"), val = tensor<fp16, []>(0x1.5p-17)];
            tensor<fp16, [1, 1280, 1, 1500]> out_5_cast_fp16 = layer_norm(axes = out_5_axes_0, epsilon = var_467_to_fp16, x = inputs_5_cast_fp16)[name = tensor<string, []>("out_5_cast_fp16")];
            tensor<fp16, [1280]> obj_5_gamma_0_to_fp16 = const()[name = tensor<string, []>("obj_5_gamma_0_to_fp16"), val = tensor<fp16, [1280]>(BLOBFILE(path = tensor<string, []>("@model_path/weights/weight.bin"), offset = tensor<uint64, []>(30508352)))];
            tensor<fp16, [1280]> obj_5_beta_0_to_fp16 = const()[name = tensor<string, []>("obj_5_beta_0_to_fp16"), val = tensor<fp16, [1280]>(BLOBFILE(path = tensor<string, []>("@model_path/weights/weight.bin"), offset = tensor<uint64, []>(30510976)))];
            tensor<fp16, []> obj_5_epsilon_0_to_fp16 = const()[name = tensor<string, []>("obj_5_epsilon_0_to_fp16"), val = tensor<fp16, []>(0x1.5p-17)];
            tensor<fp16, [1, 1280, 1, 1500]> obj_5_cast_fp16 = batch_norm(beta = obj_5_beta_0_to_fp16, epsilon = obj_5_epsilon_0_to_fp16, gamma = obj_5_gamma_0_to_fp16, mean = var_97_to_fp16, variance = obj_1_variance_0_to_fp16, x = out_5_cast_fp16)[name = tensor<string, []>("obj_5_cast_fp16")];
            tensor<string, []> var_489_pad_type_0 = const()[name = tensor<string, []>("op_489_pad_type_0"), val = tensor<string, []>("valid")];
            tensor<int32, [2]> var_489_strides_0 = const()[name = tensor<string, []>("op_489_strides_0"), val = tensor<int32, [2]>([1, 1])];
            tensor<int32, [4]> var_489_pad_0 = const()[name = tensor<string, []>("op_489_pad_0"), val = tensor<int32, [4]>([0, 0, 0, 0])];
            tensor<int32, [2]> var_489_dilations_0 = const()[name = tensor<string, []>("op_489_dilations_0"), val = tensor<int32, [2]>([1, 1])];
            tensor<int32, []> var_489_groups_0 = const()[name = tensor<string, []>("op_489_groups_0"), val = tensor<int32, []>(1)];
            tensor<fp16, [1280, 1280, 1, 1]> layers_1_self_attn_q_proj_inlier_module_weight_to_fp16_palettized = constexpr_lut_to_dense()[indices = tensor<uint8, [819200]>(BLOBFILE(path = tensor<string, []>("@model_path/weights/weight.bin"), offset = tensor<uint64, []>(30513600))), lut = tensor<fp16, [16]>(BLOBFILE(path = tensor<string, []>("@model_path/weights/weight.bin"), offset = tensor<uint64, []>(31332864))), name = tensor<string, []>("layers_1_self_attn_q_proj_inlier_module_weight_to_fp16_palettized"), shape = tensor<uint32, [4]>([1280, 1280, 1, 1])];
            tensor<fp16, [1280]> layers_1_self_attn_q_proj_inlier_module_bias_to_fp16 = const()[name = tensor<string, []>("layers_1_self_attn_q_proj_inlier_module_bias_to_fp16"), val = tensor<fp16, [1280]>(BLOBFILE(path = tensor<string, []>("@model_path/weights/weight.bin"), offset = tensor<uint64, []>(31332992)))];
            tensor<fp16, [1, 1280, 1, 1500]> var_489_cast_fp16 = conv(bias = layers_1_self_attn_q_proj_inlier_module_bias_to_fp16, dilations = var_489_dilations_0, groups = var_489_groups_0, pad = var_489_pad_0, pad_type = var_489_pad_type_0, strides = var_489_strides_0, weight = layers_1_self_attn_q_proj_inlier_module_weight_to_fp16_palettized, x = obj_5_cast_fp16)[name = tensor<string, []>("op_489_cast_fp16")];
            tensor<string, []> var_495_pad_type_0 = const()[name = tensor<string, []>("op_495_pad_type_0"), val = tensor<string, []>("valid")];
            tensor<int32, [2]> var_495_strides_0 = const()[name = tensor<string, []>("op_495_strides_0"), val = tensor<int32, [2]>([1, 1])];
            tensor<int32, [4]> var_495_pad_0 = const()[name = tensor<string, []>("op_495_pad_0"), val = tensor<int32, [4]>([0, 0, 0, 0])];
            tensor<int32, [2]> var_495_dilations_0 = const()[name = tensor<string, []>("op_495_dilations_0"), val = tensor<int32, [2]>([1, 1])];
            tensor<int32, []> var_495_groups_0 = const()[name = tensor<string, []>("op_495_groups_0"), val = tensor<int32, []>(1)];
            tensor<fp16, [1280, 1280, 1, 1]> layers_1_self_attn_q_proj_outlier_module_weight_to_fp16_sparsified = constexpr_sparse_to_dense()[mask = tensor<uint8, [204800]>(BLOBFILE(path = tensor<string, []>("@model_path/weights/weight.bin"), offset = tensor<uint64, []>(31399552))), name = tensor<string, []>("layers_1_self_attn_q_proj_outlier_module_weight_to_fp16_sparsified"), nonzero_data = tensor<fp16, [31911]>(BLOBFILE(path = tensor<string, []>("@model_path/weights/weight.bin"), offset = tensor<uint64, []>(31335616))), shape = tensor<uint32, [4]>([1280, 1280, 1, 1])];
            tensor<fp16, [1, 1280, 1, 1500]> var_495_cast_fp16 = conv(dilations = var_495_dilations_0, groups = var_495_groups_0, pad = var_495_pad_0, pad_type = var_495_pad_type_0, strides = var_495_strides_0, weight = layers_1_self_attn_q_proj_outlier_module_weight_to_fp16_sparsified, x = obj_5_cast_fp16)[name = tensor<string, []>("op_495_cast_fp16")];
            tensor<fp16, [1, 1280, 1, 1500]> query_3_cast_fp16 = add(x = var_489_cast_fp16, y = var_495_cast_fp16)[name = tensor<string, []>("query_3_cast_fp16")];
            tensor<string, []> var_504_pad_type_0 = const()[name = tensor<string, []>("op_504_pad_type_0"), val = tensor<string, []>("valid")];
            tensor<int32, [2]> var_504_strides_0 = const()[name = tensor<string, []>("op_504_strides_0"), val = tensor<int32, [2]>([1, 1])];
            tensor<int32, [4]> var_504_pad_0 = const()[name = tensor<string, []>("op_504_pad_0"), val = tensor<int32, [4]>([0, 0, 0, 0])];
            tensor<int32, [2]> var_504_dilations_0 = const()[name = tensor<string, []>("op_504_dilations_0"), val = tensor<int32, [2]>([1, 1])];
            tensor<int32, []> var_504_groups_0 = const()[name = tensor<string, []>("op_504_groups_0"), val = tensor<int32, []>(1)];
            tensor<fp16, [1280, 1280, 1, 1]> layers_1_self_attn_k_proj_inlier_module_weight_to_fp16_palettized = constexpr_lut_to_dense()[indices = tensor<uint8, [819200]>(BLOBFILE(path = tensor<string, []>("@model_path/weights/weight.bin"), offset = tensor<uint64, []>(31604416))), lut = tensor<fp16, [16]>(BLOBFILE(path = tensor<string, []>("@model_path/weights/weight.bin"), offset = tensor<uint64, []>(32423680))), name = tensor<string, []>("layers_1_self_attn_k_proj_inlier_module_weight_to_fp16_palettized"), shape = tensor<uint32, [4]>([1280, 1280, 1, 1])];
            tensor<fp16, [1, 1280, 1, 1500]> var_504_cast_fp16 = conv(dilations = var_504_dilations_0, groups = var_504_groups_0, pad = var_504_pad_0, pad_type = var_504_pad_type_0, strides = var_504_strides_0, weight = layers_1_self_attn_k_proj_inlier_module_weight_to_fp16_palettized, x = obj_5_cast_fp16)[name = tensor<string, []>("op_504_cast_fp16")];
            tensor<string, []> var_510_pad_type_0 = const()[name = tensor<string, []>("op_510_pad_type_0"), val = tensor<string, []>("valid")];
            tensor<int32, [2]> var_510_strides_0 = const()[name = tensor<string, []>("op_510_strides_0"), val = tensor<int32, [2]>([1, 1])];
            tensor<int32, [4]> var_510_pad_0 = const()[name = tensor<string, []>("op_510_pad_0"), val = tensor<int32, [4]>([0, 0, 0, 0])];
            tensor<int32, [2]> var_510_dilations_0 = const()[name = tensor<string, []>("op_510_dilations_0"), val = tensor<int32, [2]>([1, 1])];
            tensor<int32, []> var_510_groups_0 = const()[name = tensor<string, []>("op_510_groups_0"), val = tensor<int32, []>(1)];
            tensor<fp16, [1280, 1280, 1, 1]> layers_1_self_attn_k_proj_outlier_module_weight_to_fp16_sparsified = constexpr_sparse_to_dense()[mask = tensor<uint8, [204800]>(BLOBFILE(path = tensor<string, []>("@model_path/weights/weight.bin"), offset = tensor<uint64, []>(32475264))), name = tensor<string, []>("layers_1_self_attn_k_proj_outlier_module_weight_to_fp16_sparsified"), nonzero_data = tensor<fp16, [25674]>(BLOBFILE(path = tensor<string, []>("@model_path/weights/weight.bin"), offset = tensor<uint64, []>(32423808))), shape = tensor<uint32, [4]>([1280, 1280, 1, 1])];
            tensor<fp16, [1, 1280, 1, 1500]> var_510_cast_fp16 = conv(dilations = var_510_dilations_0, groups = var_510_groups_0, pad = var_510_pad_0, pad_type = var_510_pad_type_0, strides = var_510_strides_0, weight = layers_1_self_attn_k_proj_outlier_module_weight_to_fp16_sparsified, x = obj_5_cast_fp16)[name = tensor<string, []>("op_510_cast_fp16")];
            tensor<fp16, [1, 1280, 1, 1500]> key_3_cast_fp16 = add(x = var_504_cast_fp16, y = var_510_cast_fp16)[name = tensor<string, []>("key_3_cast_fp16")];
            tensor<string, []> var_520_pad_type_0 = const()[name = tensor<string, []>("op_520_pad_type_0"), val = tensor<string, []>("valid")];
            tensor<int32, [2]> var_520_strides_0 = const()[name = tensor<string, []>("op_520_strides_0"), val = tensor<int32, [2]>([1, 1])];
            tensor<int32, [4]> var_520_pad_0 = const()[name = tensor<string, []>("op_520_pad_0"), val = tensor<int32, [4]>([0, 0, 0, 0])];
            tensor<int32, [2]> var_520_dilations_0 = const()[name = tensor<string, []>("op_520_dilations_0"), val = tensor<int32, [2]>([1, 1])];
            tensor<int32, []> var_520_groups_0 = const()[name = tensor<string, []>("op_520_groups_0"), val = tensor<int32, []>(1)];
            tensor<fp16, [1280, 1280, 1, 1]> layers_1_self_attn_v_proj_inlier_module_weight_to_fp16_palettized = constexpr_lut_to_dense()[indices = tensor<uint8, [819200]>(BLOBFILE(path = tensor<string, []>("@model_path/weights/weight.bin"), offset = tensor<uint64, []>(32680128))), lut = tensor<fp16, [16]>(BLOBFILE(path = tensor<string, []>("@model_path/weights/weight.bin"), offset = tensor<uint64, []>(33499392))), name = tensor<string, []>("layers_1_self_attn_v_proj_inlier_module_weight_to_fp16_palettized"), shape = tensor<uint32, [4]>([1280, 1280, 1, 1])];
            tensor<fp16, [1280]> layers_1_self_attn_v_proj_inlier_module_bias_to_fp16 = const()[name = tensor<string, []>("layers_1_self_attn_v_proj_inlier_module_bias_to_fp16"), val = tensor<fp16, [1280]>(BLOBFILE(path = tensor<string, []>("@model_path/weights/weight.bin"), offset = tensor<uint64, []>(33499520)))];
            tensor<fp16, [1, 1280, 1, 1500]> var_520_cast_fp16 = conv(bias = layers_1_self_attn_v_proj_inlier_module_bias_to_fp16, dilations = var_520_dilations_0, groups = var_520_groups_0, pad = var_520_pad_0, pad_type = var_520_pad_type_0, strides = var_520_strides_0, weight = layers_1_self_attn_v_proj_inlier_module_weight_to_fp16_palettized, x = obj_5_cast_fp16)[name = tensor<string, []>("op_520_cast_fp16")];
            tensor<string, []> var_526_pad_type_0 = const()[name = tensor<string, []>("op_526_pad_type_0"), val = tensor<string, []>("valid")];
            tensor<int32, [2]> var_526_strides_0 = const()[name = tensor<string, []>("op_526_strides_0"), val = tensor<int32, [2]>([1, 1])];
            tensor<int32, [4]> var_526_pad_0 = const()[name = tensor<string, []>("op_526_pad_0"), val = tensor<int32, [4]>([0, 0, 0, 0])];
            tensor<int32, [2]> var_526_dilations_0 = const()[name = tensor<string, []>("op_526_dilations_0"), val = tensor<int32, [2]>([1, 1])];
            tensor<int32, []> var_526_groups_0 = const()[name = tensor<string, []>("op_526_groups_0"), val = tensor<int32, []>(1)];
            tensor<fp16, [1280, 1280, 1, 1]> layers_1_self_attn_v_proj_outlier_module_weight_to_fp16_sparsified = constexpr_sparse_to_dense()[mask = tensor<uint8, [204800]>(BLOBFILE(path = tensor<string, []>("@model_path/weights/weight.bin"), offset = tensor<uint64, []>(33549632))), name = tensor<string, []>("layers_1_self_attn_v_proj_outlier_module_weight_to_fp16_sparsified"), nonzero_data = tensor<fp16, [23687]>(BLOBFILE(path = tensor<string, []>("@model_path/weights/weight.bin"), offset = tensor<uint64, []>(33502144))), shape = tensor<uint32, [4]>([1280, 1280, 1, 1])];
            tensor<fp16, [1, 1280, 1, 1500]> var_526_cast_fp16 = conv(dilations = var_526_dilations_0, groups = var_526_groups_0, pad = var_526_pad_0, pad_type = var_526_pad_type_0, strides = var_526_strides_0, weight = layers_1_self_attn_v_proj_outlier_module_weight_to_fp16_sparsified, x = obj_5_cast_fp16)[name = tensor<string, []>("op_526_cast_fp16")];
            tensor<fp16, [1, 1280, 1, 1500]> value_3_cast_fp16 = add(x = var_520_cast_fp16, y = var_526_cast_fp16)[name = tensor<string, []>("value_3_cast_fp16")];
            tensor<int32, [4]> var_529 = const()[name = tensor<string, []>("op_529"), val = tensor<int32, [4]>([1, 20, 64, -1])];
            tensor<fp16, [1, 20, 64, 1500]> mh_q_3_cast_fp16 = reshape(shape = var_529, x = query_3_cast_fp16)[name = tensor<string, []>("mh_q_3_cast_fp16")];
            tensor<fp16, []> var_531_to_fp16 = const()[name = tensor<string, []>("op_531_to_fp16"), val = tensor<fp16, []>(0x1p-3)];
            tensor<fp16, [1, 20, 64, 1500]> var_532_cast_fp16 = mul(x = mh_q_3_cast_fp16, y = var_531_to_fp16)[name = tensor<string, []>("op_532_cast_fp16")];
            tensor<int32, [4]> var_533 = const()[name = tensor<string, []>("op_533"), val = tensor<int32, [4]>([1, 20, 64, -1])];
            tensor<fp16, [1, 20, 64, 1500]> var_534_cast_fp16 = reshape(shape = var_533, x = key_3_cast_fp16)[name = tensor<string, []>("op_534_cast_fp16")];
            tensor<bool, []> mh_w_3_transpose_x_0 = const()[name = tensor<string, []>("mh_w_3_transpose_x_0"), val = tensor<bool, []>(true)];
            tensor<bool, []> mh_w_3_transpose_y_0 = const()[name = tensor<string, []>("mh_w_3_transpose_y_0"), val = tensor<bool, []>(false)];
            tensor<fp16, [1, 20, 1500, 1500]> mh_w_3_cast_fp16 = matmul(transpose_x = mh_w_3_transpose_x_0, transpose_y = mh_w_3_transpose_y_0, x = var_532_cast_fp16, y = var_534_cast_fp16)[name = tensor<string, []>("mh_w_3_cast_fp16")];
            tensor<fp16, [1, 20, 1500, 1500]> var_537_cast_fp16 = softmax(axis = var_448, x = mh_w_3_cast_fp16)[name = tensor<string, []>("op_537_cast_fp16")];
            tensor<int32, [4]> var_538 = const()[name = tensor<string, []>("op_538"), val = tensor<int32, [4]>([1, 20, 64, -1])];
            tensor<fp16, [1, 20, 64, 1500]> var_539_cast_fp16 = reshape(shape = var_538, x = value_3_cast_fp16)[name = tensor<string, []>("op_539_cast_fp16")];
            tensor<bool, []> attn_3_transpose_x_0 = const()[name = tensor<string, []>("attn_3_transpose_x_0"), val = tensor<bool, []>(false)];
            tensor<bool, []> attn_3_transpose_y_0 = const()[name = tensor<string, []>("attn_3_transpose_y_0"), val = tensor<bool, []>(true)];
            tensor<fp16, [1, 20, 64, 1500]> attn_3_cast_fp16 = matmul(transpose_x = attn_3_transpose_x_0, transpose_y = attn_3_transpose_y_0, x = var_539_cast_fp16, y = var_537_cast_fp16)[name = tensor<string, []>("attn_3_cast_fp16")];
            tensor<int32, [4]> var_542 = const()[name = tensor<string, []>("op_542"), val = tensor<int32, [4]>([1, 1280, 1, -1])];
            tensor<fp16, [1, 1280, 1, 1500]> input_9_cast_fp16 = reshape(shape = var_542, x = attn_3_cast_fp16)[name = tensor<string, []>("input_9_cast_fp16")];
            tensor<string, []> var_552_pad_type_0 = const()[name = tensor<string, []>("op_552_pad_type_0"), val = tensor<string, []>("valid")];
            tensor<int32, [2]> var_552_strides_0 = const()[name = tensor<string, []>("op_552_strides_0"), val = tensor<int32, [2]>([1, 1])];
            tensor<int32, [4]> var_552_pad_0 = const()[name = tensor<string, []>("op_552_pad_0"), val = tensor<int32, [4]>([0, 0, 0, 0])];
            tensor<int32, [2]> var_552_dilations_0 = const()[name = tensor<string, []>("op_552_dilations_0"), val = tensor<int32, [2]>([1, 1])];
            tensor<int32, []> var_552_groups_0 = const()[name = tensor<string, []>("op_552_groups_0"), val = tensor<int32, []>(1)];
            tensor<fp16, [1280, 1280, 1, 1]> layers_1_self_attn_o_proj_inlier_module_weight_to_fp16_palettized = constexpr_lut_to_dense()[indices = tensor<uint8, [819200]>(BLOBFILE(path = tensor<string, []>("@model_path/weights/weight.bin"), offset = tensor<uint64, []>(33754496))), lut = tensor<fp16, [16]>(BLOBFILE(path = tensor<string, []>("@model_path/weights/weight.bin"), offset = tensor<uint64, []>(34573760))), name = tensor<string, []>("layers_1_self_attn_o_proj_inlier_module_weight_to_fp16_palettized"), shape = tensor<uint32, [4]>([1280, 1280, 1, 1])];
            tensor<fp16, [1280]> layers_1_self_attn_o_proj_inlier_module_bias_to_fp16 = const()[name = tensor<string, []>("layers_1_self_attn_o_proj_inlier_module_bias_to_fp16"), val = tensor<fp16, [1280]>(BLOBFILE(path = tensor<string, []>("@model_path/weights/weight.bin"), offset = tensor<uint64, []>(34573888)))];
            tensor<fp16, [1, 1280, 1, 1500]> var_552_cast_fp16 = conv(bias = layers_1_self_attn_o_proj_inlier_module_bias_to_fp16, dilations = var_552_dilations_0, groups = var_552_groups_0, pad = var_552_pad_0, pad_type = var_552_pad_type_0, strides = var_552_strides_0, weight = layers_1_self_attn_o_proj_inlier_module_weight_to_fp16_palettized, x = input_9_cast_fp16)[name = tensor<string, []>("op_552_cast_fp16")];
            tensor<string, []> var_558_pad_type_0 = const()[name = tensor<string, []>("op_558_pad_type_0"), val = tensor<string, []>("valid")];
            tensor<int32, [2]> var_558_strides_0 = const()[name = tensor<string, []>("op_558_strides_0"), val = tensor<int32, [2]>([1, 1])];
            tensor<int32, [4]> var_558_pad_0 = const()[name = tensor<string, []>("op_558_pad_0"), val = tensor<int32, [4]>([0, 0, 0, 0])];
            tensor<int32, [2]> var_558_dilations_0 = const()[name = tensor<string, []>("op_558_dilations_0"), val = tensor<int32, [2]>([1, 1])];
            tensor<int32, []> var_558_groups_0 = const()[name = tensor<string, []>("op_558_groups_0"), val = tensor<int32, []>(1)];
            tensor<fp16, [1280, 1280, 1, 1]> layers_1_self_attn_o_proj_outlier_module_weight_to_fp16_sparsified = constexpr_sparse_to_dense()[mask = tensor<uint8, [204800]>(BLOBFILE(path = tensor<string, []>("@model_path/weights/weight.bin"), offset = tensor<uint64, []>(34612736))), name = tensor<string, []>("layers_1_self_attn_o_proj_outlier_module_weight_to_fp16_sparsified"), nonzero_data = tensor<fp16, [18054]>(BLOBFILE(path = tensor<string, []>("@model_path/weights/weight.bin"), offset = tensor<uint64, []>(34576512))), shape = tensor<uint32, [4]>([1280, 1280, 1, 1])];
            tensor<fp16, [1, 1280, 1, 1500]> var_558_cast_fp16 = conv(dilations = var_558_dilations_0, groups = var_558_groups_0, pad = var_558_pad_0, pad_type = var_558_pad_type_0, strides = var_558_strides_0, weight = layers_1_self_attn_o_proj_outlier_module_weight_to_fp16_sparsified, x = input_9_cast_fp16)[name = tensor<string, []>("op_558_cast_fp16")];
            tensor<fp16, [1, 1280, 1, 1500]> obj_7_cast_fp16 = add(x = var_552_cast_fp16, y = var_558_cast_fp16)[name = tensor<string, []>("obj_7_cast_fp16")];
            tensor<fp16, [1, 1280, 1, 1500]> inputs_7_cast_fp16 = add(x = inputs_5_cast_fp16, y = obj_7_cast_fp16)[name = tensor<string, []>("inputs_7_cast_fp16")];
            tensor<int32, [1]> out_7_axes_0 = const()[name = tensor<string, []>("out_7_axes_0"), val = tensor<int32, [1]>([1])];
            tensor<fp16, []> var_569_to_fp16 = const()[name = tensor<string, []>("op_569_to_fp16"), val = tensor<fp16, []>(0x1.5p-17)];
            tensor<fp16, [1, 1280, 1, 1500]> out_7_cast_fp16 = layer_norm(axes = out_7_axes_0, epsilon = var_569_to_fp16, x = inputs_7_cast_fp16)[name = tensor<string, []>("out_7_cast_fp16")];
            tensor<fp16, [1280]> input_11_gamma_0_to_fp16 = const()[name = tensor<string, []>("input_11_gamma_0_to_fp16"), val = tensor<fp16, [1280]>(BLOBFILE(path = tensor<string, []>("@model_path/weights/weight.bin"), offset = tensor<uint64, []>(34817600)))];
            tensor<fp16, [1280]> input_11_beta_0_to_fp16 = const()[name = tensor<string, []>("input_11_beta_0_to_fp16"), val = tensor<fp16, [1280]>(BLOBFILE(path = tensor<string, []>("@model_path/weights/weight.bin"), offset = tensor<uint64, []>(34820224)))];
            tensor<fp16, []> input_11_epsilon_0_to_fp16 = const()[name = tensor<string, []>("input_11_epsilon_0_to_fp16"), val = tensor<fp16, []>(0x1.5p-17)];
            tensor<fp16, [1, 1280, 1, 1500]> input_11_cast_fp16 = batch_norm(beta = input_11_beta_0_to_fp16, epsilon = input_11_epsilon_0_to_fp16, gamma = input_11_gamma_0_to_fp16, mean = var_97_to_fp16, variance = obj_1_variance_0_to_fp16, x = out_7_cast_fp16)[name = tensor<string, []>("input_11_cast_fp16")];
            tensor<string, []> var_587_pad_type_0 = const()[name = tensor<string, []>("op_587_pad_type_0"), val = tensor<string, []>("valid")];
            tensor<int32, [2]> var_587_strides_0 = const()[name = tensor<string, []>("op_587_strides_0"), val = tensor<int32, [2]>([1, 1])];
            tensor<int32, [4]> var_587_pad_0 = const()[name = tensor<string, []>("op_587_pad_0"), val = tensor<int32, [4]>([0, 0, 0, 0])];
            tensor<int32, [2]> var_587_dilations_0 = const()[name = tensor<string, []>("op_587_dilations_0"), val = tensor<int32, [2]>([1, 1])];
            tensor<int32, []> var_587_groups_0 = const()[name = tensor<string, []>("op_587_groups_0"), val = tensor<int32, []>(1)];
            tensor<fp16, [5120, 1280, 1, 1]> layers_1_fc1_inlier_module_weight_to_fp16_palettized = constexpr_lut_to_dense()[indices = tensor<uint8, [3276800]>(BLOBFILE(path = tensor<string, []>("@model_path/weights/weight.bin"), offset = tensor<uint64, []>(34822848))), lut = tensor<fp16, [16]>(BLOBFILE(path = tensor<string, []>("@model_path/weights/weight.bin"), offset = tensor<uint64, []>(38099712))), name = tensor<string, []>("layers_1_fc1_inlier_module_weight_to_fp16_palettized"), shape = tensor<uint32, [4]>([5120, 1280, 1, 1])];
            tensor<fp16, [5120]> layers_1_fc1_inlier_module_bias_to_fp16 = const()[name = tensor<string, []>("layers_1_fc1_inlier_module_bias_to_fp16"), val = tensor<fp16, [5120]>(BLOBFILE(path = tensor<string, []>("@model_path/weights/weight.bin"), offset = tensor<uint64, []>(38099840)))];
            tensor<fp16, [1, 5120, 1, 1500]> var_587_cast_fp16 = conv(bias = layers_1_fc1_inlier_module_bias_to_fp16, dilations = var_587_dilations_0, groups = var_587_groups_0, pad = var_587_pad_0, pad_type = var_587_pad_type_0, strides = var_587_strides_0, weight = layers_1_fc1_inlier_module_weight_to_fp16_palettized, x = input_11_cast_fp16)[name = tensor<string, []>("op_587_cast_fp16")];
            tensor<string, []> var_593_pad_type_0 = const()[name = tensor<string, []>("op_593_pad_type_0"), val = tensor<string, []>("valid")];
            tensor<int32, [2]> var_593_strides_0 = const()[name = tensor<string, []>("op_593_strides_0"), val = tensor<int32, [2]>([1, 1])];
            tensor<int32, [4]> var_593_pad_0 = const()[name = tensor<string, []>("op_593_pad_0"), val = tensor<int32, [4]>([0, 0, 0, 0])];
            tensor<int32, [2]> var_593_dilations_0 = const()[name = tensor<string, []>("op_593_dilations_0"), val = tensor<int32, [2]>([1, 1])];
            tensor<int32, []> var_593_groups_0 = const()[name = tensor<string, []>("op_593_groups_0"), val = tensor<int32, []>(1)];
            tensor<fp16, [5120, 1280, 1, 1]> layers_1_fc1_outlier_module_weight_to_fp16_sparsified = constexpr_sparse_to_dense()[mask = tensor<uint8, [819200]>(BLOBFILE(path = tensor<string, []>("@model_path/weights/weight.bin"), offset = tensor<uint64, []>(38256320))), name = tensor<string, []>("layers_1_fc1_outlier_module_weight_to_fp16_sparsified"), nonzero_data = tensor<fp16, [73044]>(BLOBFILE(path = tensor<string, []>("@model_path/weights/weight.bin"), offset = tensor<uint64, []>(38110144))), shape = tensor<uint32, [4]>([5120, 1280, 1, 1])];
            tensor<fp16, [1, 5120, 1, 1500]> var_593_cast_fp16 = conv(dilations = var_593_dilations_0, groups = var_593_groups_0, pad = var_593_pad_0, pad_type = var_593_pad_type_0, strides = var_593_strides_0, weight = layers_1_fc1_outlier_module_weight_to_fp16_sparsified, x = input_11_cast_fp16)[name = tensor<string, []>("op_593_cast_fp16")];
            tensor<fp16, [1, 5120, 1, 1500]> input_13_cast_fp16 = add(x = var_587_cast_fp16, y = var_593_cast_fp16)[name = tensor<string, []>("input_13_cast_fp16")];
            tensor<string, []> input_15_mode_0 = const()[name = tensor<string, []>("input_15_mode_0"), val = tensor<string, []>("EXACT")];
            tensor<fp16, [1, 5120, 1, 1500]> input_15_cast_fp16 = gelu(mode = input_15_mode_0, x = input_13_cast_fp16)[name = tensor<string, []>("input_15_cast_fp16")];
            tensor<string, []> var_604_pad_type_0 = const()[name = tensor<string, []>("op_604_pad_type_0"), val = tensor<string, []>("valid")];
            tensor<int32, [2]> var_604_strides_0 = const()[name = tensor<string, []>("op_604_strides_0"), val = tensor<int32, [2]>([1, 1])];
            tensor<int32, [4]> var_604_pad_0 = const()[name = tensor<string, []>("op_604_pad_0"), val = tensor<int32, [4]>([0, 0, 0, 0])];
            tensor<int32, [2]> var_604_dilations_0 = const()[name = tensor<string, []>("op_604_dilations_0"), val = tensor<int32, [2]>([1, 1])];
            tensor<int32, []> var_604_groups_0 = const()[name = tensor<string, []>("op_604_groups_0"), val = tensor<int32, []>(1)];
            tensor<fp16, [1280, 5120, 1, 1]> layers_1_fc2_inlier_module_weight_to_fp16_palettized = constexpr_lut_to_dense()[indices = tensor<uint8, [3276800]>(BLOBFILE(path = tensor<string, []>("@model_path/weights/weight.bin"), offset = tensor<uint64, []>(39075584))), lut = tensor<fp16, [16]>(BLOBFILE(path = tensor<string, []>("@model_path/weights/weight.bin"), offset = tensor<uint64, []>(42352448))), name = tensor<string, []>("layers_1_fc2_inlier_module_weight_to_fp16_palettized"), shape = tensor<uint32, [4]>([1280, 5120, 1, 1])];
            tensor<fp16, [1280]> layers_1_fc2_inlier_module_bias_to_fp16 = const()[name = tensor<string, []>("layers_1_fc2_inlier_module_bias_to_fp16"), val = tensor<fp16, [1280]>(BLOBFILE(path = tensor<string, []>("@model_path/weights/weight.bin"), offset = tensor<uint64, []>(42352576)))];
            tensor<fp16, [1, 1280, 1, 1500]> var_604_cast_fp16 = conv(bias = layers_1_fc2_inlier_module_bias_to_fp16, dilations = var_604_dilations_0, groups = var_604_groups_0, pad = var_604_pad_0, pad_type = var_604_pad_type_0, strides = var_604_strides_0, weight = layers_1_fc2_inlier_module_weight_to_fp16_palettized, x = input_15_cast_fp16)[name = tensor<string, []>("op_604_cast_fp16")];
            tensor<string, []> var_610_pad_type_0 = const()[name = tensor<string, []>("op_610_pad_type_0"), val = tensor<string, []>("valid")];
            tensor<int32, [2]> var_610_strides_0 = const()[name = tensor<string, []>("op_610_strides_0"), val = tensor<int32, [2]>([1, 1])];
            tensor<int32, [4]> var_610_pad_0 = const()[name = tensor<string, []>("op_610_pad_0"), val = tensor<int32, [4]>([0, 0, 0, 0])];
            tensor<int32, [2]> var_610_dilations_0 = const()[name = tensor<string, []>("op_610_dilations_0"), val = tensor<int32, [2]>([1, 1])];
            tensor<int32, []> var_610_groups_0 = const()[name = tensor<string, []>("op_610_groups_0"), val = tensor<int32, []>(1)];
            tensor<fp16, [1280, 5120, 1, 1]> layers_1_fc2_outlier_module_weight_to_fp16_sparsified = constexpr_sparse_to_dense()[mask = tensor<uint8, [819200]>(BLOBFILE(path = tensor<string, []>("@model_path/weights/weight.bin"), offset = tensor<uint64, []>(42567552))), name = tensor<string, []>("layers_1_fc2_outlier_module_weight_to_fp16_sparsified"), nonzero_data = tensor<fp16, [106134]>(BLOBFILE(path = tensor<string, []>("@model_path/weights/weight.bin"), offset = tensor<uint64, []>(42355200))), shape = tensor<uint32, [4]>([1280, 5120, 1, 1])];
            tensor<fp16, [1, 1280, 1, 1500]> var_610_cast_fp16 = conv(dilations = var_610_dilations_0, groups = var_610_groups_0, pad = var_610_pad_0, pad_type = var_610_pad_type_0, strides = var_610_strides_0, weight = layers_1_fc2_outlier_module_weight_to_fp16_sparsified, x = input_15_cast_fp16)[name = tensor<string, []>("op_610_cast_fp16")];
            tensor<fp16, [1, 1280, 1, 1500]> hidden_states_7_cast_fp16 = add(x = var_604_cast_fp16, y = var_610_cast_fp16)[name = tensor<string, []>("hidden_states_7_cast_fp16")];
            tensor<fp16, [1, 1280, 1, 1500]> inputs_9_cast_fp16 = add(x = inputs_7_cast_fp16, y = hidden_states_7_cast_fp16)[name = tensor<string, []>("inputs_9_cast_fp16")];
            tensor<int32, []> var_620 = const()[name = tensor<string, []>("op_620"), val = tensor<int32, []>(3)];
            tensor<int32, [1]> out_9_axes_0 = const()[name = tensor<string, []>("out_9_axes_0"), val = tensor<int32, [1]>([1])];
            tensor<fp16, []> var_639_to_fp16 = const()[name = tensor<string, []>("op_639_to_fp16"), val = tensor<fp16, []>(0x1.5p-17)];
            tensor<fp16, [1, 1280, 1, 1500]> out_9_cast_fp16 = layer_norm(axes = out_9_axes_0, epsilon = var_639_to_fp16, x = inputs_9_cast_fp16)[name = tensor<string, []>("out_9_cast_fp16")];
            tensor<fp16, [1280]> obj_9_gamma_0_to_fp16 = const()[name = tensor<string, []>("obj_9_gamma_0_to_fp16"), val = tensor<fp16, [1280]>(BLOBFILE(path = tensor<string, []>("@model_path/weights/weight.bin"), offset = tensor<uint64, []>(43386816)))];
            tensor<fp16, [1280]> obj_9_beta_0_to_fp16 = const()[name = tensor<string, []>("obj_9_beta_0_to_fp16"), val = tensor<fp16, [1280]>(BLOBFILE(path = tensor<string, []>("@model_path/weights/weight.bin"), offset = tensor<uint64, []>(43389440)))];
            tensor<fp16, []> obj_9_epsilon_0_to_fp16 = const()[name = tensor<string, []>("obj_9_epsilon_0_to_fp16"), val = tensor<fp16, []>(0x1.5p-17)];
            tensor<fp16, [1, 1280, 1, 1500]> obj_9_cast_fp16 = batch_norm(beta = obj_9_beta_0_to_fp16, epsilon = obj_9_epsilon_0_to_fp16, gamma = obj_9_gamma_0_to_fp16, mean = var_97_to_fp16, variance = obj_1_variance_0_to_fp16, x = out_9_cast_fp16)[name = tensor<string, []>("obj_9_cast_fp16")];
            tensor<string, []> var_661_pad_type_0 = const()[name = tensor<string, []>("op_661_pad_type_0"), val = tensor<string, []>("valid")];
            tensor<int32, [2]> var_661_strides_0 = const()[name = tensor<string, []>("op_661_strides_0"), val = tensor<int32, [2]>([1, 1])];
            tensor<int32, [4]> var_661_pad_0 = const()[name = tensor<string, []>("op_661_pad_0"), val = tensor<int32, [4]>([0, 0, 0, 0])];
            tensor<int32, [2]> var_661_dilations_0 = const()[name = tensor<string, []>("op_661_dilations_0"), val = tensor<int32, [2]>([1, 1])];
            tensor<int32, []> var_661_groups_0 = const()[name = tensor<string, []>("op_661_groups_0"), val = tensor<int32, []>(1)];
            tensor<fp16, [1280, 1280, 1, 1]> layers_2_self_attn_q_proj_inlier_module_weight_to_fp16_palettized = constexpr_lut_to_dense()[indices = tensor<uint8, [819200]>(BLOBFILE(path = tensor<string, []>("@model_path/weights/weight.bin"), offset = tensor<uint64, []>(43392064))), lut = tensor<fp16, [16]>(BLOBFILE(path = tensor<string, []>("@model_path/weights/weight.bin"), offset = tensor<uint64, []>(44211328))), name = tensor<string, []>("layers_2_self_attn_q_proj_inlier_module_weight_to_fp16_palettized"), shape = tensor<uint32, [4]>([1280, 1280, 1, 1])];
            tensor<fp16, [1280]> layers_2_self_attn_q_proj_inlier_module_bias_to_fp16 = const()[name = tensor<string, []>("layers_2_self_attn_q_proj_inlier_module_bias_to_fp16"), val = tensor<fp16, [1280]>(BLOBFILE(path = tensor<string, []>("@model_path/weights/weight.bin"), offset = tensor<uint64, []>(44211456)))];
            tensor<fp16, [1, 1280, 1, 1500]> var_661_cast_fp16 = conv(bias = layers_2_self_attn_q_proj_inlier_module_bias_to_fp16, dilations = var_661_dilations_0, groups = var_661_groups_0, pad = var_661_pad_0, pad_type = var_661_pad_type_0, strides = var_661_strides_0, weight = layers_2_self_attn_q_proj_inlier_module_weight_to_fp16_palettized, x = obj_9_cast_fp16)[name = tensor<string, []>("op_661_cast_fp16")];
            tensor<string, []> var_667_pad_type_0 = const()[name = tensor<string, []>("op_667_pad_type_0"), val = tensor<string, []>("valid")];
            tensor<int32, [2]> var_667_strides_0 = const()[name = tensor<string, []>("op_667_strides_0"), val = tensor<int32, [2]>([1, 1])];
            tensor<int32, [4]> var_667_pad_0 = const()[name = tensor<string, []>("op_667_pad_0"), val = tensor<int32, [4]>([0, 0, 0, 0])];
            tensor<int32, [2]> var_667_dilations_0 = const()[name = tensor<string, []>("op_667_dilations_0"), val = tensor<int32, [2]>([1, 1])];
            tensor<int32, []> var_667_groups_0 = const()[name = tensor<string, []>("op_667_groups_0"), val = tensor<int32, []>(1)];
            tensor<fp16, [1280, 1280, 1, 1]> layers_2_self_attn_q_proj_outlier_module_weight_to_fp16_sparsified = constexpr_sparse_to_dense()[mask = tensor<uint8, [204800]>(BLOBFILE(path = tensor<string, []>("@model_path/weights/weight.bin"), offset = tensor<uint64, []>(44271552))), name = tensor<string, []>("layers_2_self_attn_q_proj_outlier_module_weight_to_fp16_sparsified"), nonzero_data = tensor<fp16, [28690]>(BLOBFILE(path = tensor<string, []>("@model_path/weights/weight.bin"), offset = tensor<uint64, []>(44214080))), shape = tensor<uint32, [4]>([1280, 1280, 1, 1])];
            tensor<fp16, [1, 1280, 1, 1500]> var_667_cast_fp16 = conv(dilations = var_667_dilations_0, groups = var_667_groups_0, pad = var_667_pad_0, pad_type = var_667_pad_type_0, strides = var_667_strides_0, weight = layers_2_self_attn_q_proj_outlier_module_weight_to_fp16_sparsified, x = obj_9_cast_fp16)[name = tensor<string, []>("op_667_cast_fp16")];
            tensor<fp16, [1, 1280, 1, 1500]> query_5_cast_fp16 = add(x = var_661_cast_fp16, y = var_667_cast_fp16)[name = tensor<string, []>("query_5_cast_fp16")];
            tensor<string, []> var_676_pad_type_0 = const()[name = tensor<string, []>("op_676_pad_type_0"), val = tensor<string, []>("valid")];
            tensor<int32, [2]> var_676_strides_0 = const()[name = tensor<string, []>("op_676_strides_0"), val = tensor<int32, [2]>([1, 1])];
            tensor<int32, [4]> var_676_pad_0 = const()[name = tensor<string, []>("op_676_pad_0"), val = tensor<int32, [4]>([0, 0, 0, 0])];
            tensor<int32, [2]> var_676_dilations_0 = const()[name = tensor<string, []>("op_676_dilations_0"), val = tensor<int32, [2]>([1, 1])];
            tensor<int32, []> var_676_groups_0 = const()[name = tensor<string, []>("op_676_groups_0"), val = tensor<int32, []>(1)];
            tensor<fp16, [1280, 1280, 1, 1]> layers_2_self_attn_k_proj_inlier_module_weight_to_fp16_palettized = constexpr_lut_to_dense()[indices = tensor<uint8, [819200]>(BLOBFILE(path = tensor<string, []>("@model_path/weights/weight.bin"), offset = tensor<uint64, []>(44476416))), lut = tensor<fp16, [16]>(BLOBFILE(path = tensor<string, []>("@model_path/weights/weight.bin"), offset = tensor<uint64, []>(45295680))), name = tensor<string, []>("layers_2_self_attn_k_proj_inlier_module_weight_to_fp16_palettized"), shape = tensor<uint32, [4]>([1280, 1280, 1, 1])];
            tensor<fp16, [1, 1280, 1, 1500]> var_676_cast_fp16 = conv(dilations = var_676_dilations_0, groups = var_676_groups_0, pad = var_676_pad_0, pad_type = var_676_pad_type_0, strides = var_676_strides_0, weight = layers_2_self_attn_k_proj_inlier_module_weight_to_fp16_palettized, x = obj_9_cast_fp16)[name = tensor<string, []>("op_676_cast_fp16")];
            tensor<string, []> var_682_pad_type_0 = const()[name = tensor<string, []>("op_682_pad_type_0"), val = tensor<string, []>("valid")];
            tensor<int32, [2]> var_682_strides_0 = const()[name = tensor<string, []>("op_682_strides_0"), val = tensor<int32, [2]>([1, 1])];
            tensor<int32, [4]> var_682_pad_0 = const()[name = tensor<string, []>("op_682_pad_0"), val = tensor<int32, [4]>([0, 0, 0, 0])];
            tensor<int32, [2]> var_682_dilations_0 = const()[name = tensor<string, []>("op_682_dilations_0"), val = tensor<int32, [2]>([1, 1])];
            tensor<int32, []> var_682_groups_0 = const()[name = tensor<string, []>("op_682_groups_0"), val = tensor<int32, []>(1)];
            tensor<fp16, [1280, 1280, 1, 1]> layers_2_self_attn_k_proj_outlier_module_weight_to_fp16_sparsified = constexpr_sparse_to_dense()[mask = tensor<uint8, [204800]>(BLOBFILE(path = tensor<string, []>("@model_path/weights/weight.bin"), offset = tensor<uint64, []>(45344832))), name = tensor<string, []>("layers_2_self_attn_k_proj_outlier_module_weight_to_fp16_sparsified"), nonzero_data = tensor<fp16, [24459]>(BLOBFILE(path = tensor<string, []>("@model_path/weights/weight.bin"), offset = tensor<uint64, []>(45295808))), shape = tensor<uint32, [4]>([1280, 1280, 1, 1])];
            tensor<fp16, [1, 1280, 1, 1500]> var_682_cast_fp16 = conv(dilations = var_682_dilations_0, groups = var_682_groups_0, pad = var_682_pad_0, pad_type = var_682_pad_type_0, strides = var_682_strides_0, weight = layers_2_self_attn_k_proj_outlier_module_weight_to_fp16_sparsified, x = obj_9_cast_fp16)[name = tensor<string, []>("op_682_cast_fp16")];
            tensor<fp16, [1, 1280, 1, 1500]> key_5_cast_fp16 = add(x = var_676_cast_fp16, y = var_682_cast_fp16)[name = tensor<string, []>("key_5_cast_fp16")];
            tensor<string, []> var_692_pad_type_0 = const()[name = tensor<string, []>("op_692_pad_type_0"), val = tensor<string, []>("valid")];
            tensor<int32, [2]> var_692_strides_0 = const()[name = tensor<string, []>("op_692_strides_0"), val = tensor<int32, [2]>([1, 1])];
            tensor<int32, [4]> var_692_pad_0 = const()[name = tensor<string, []>("op_692_pad_0"), val = tensor<int32, [4]>([0, 0, 0, 0])];
            tensor<int32, [2]> var_692_dilations_0 = const()[name = tensor<string, []>("op_692_dilations_0"), val = tensor<int32, [2]>([1, 1])];
            tensor<int32, []> var_692_groups_0 = const()[name = tensor<string, []>("op_692_groups_0"), val = tensor<int32, []>(1)];
            tensor<fp16, [1280, 1280, 1, 1]> layers_2_self_attn_v_proj_inlier_module_weight_to_fp16_palettized = constexpr_lut_to_dense()[indices = tensor<uint8, [819200]>(BLOBFILE(path = tensor<string, []>("@model_path/weights/weight.bin"), offset = tensor<uint64, []>(45549696))), lut = tensor<fp16, [16]>(BLOBFILE(path = tensor<string, []>("@model_path/weights/weight.bin"), offset = tensor<uint64, []>(46368960))), name = tensor<string, []>("layers_2_self_attn_v_proj_inlier_module_weight_to_fp16_palettized"), shape = tensor<uint32, [4]>([1280, 1280, 1, 1])];
            tensor<fp16, [1280]> layers_2_self_attn_v_proj_inlier_module_bias_to_fp16 = const()[name = tensor<string, []>("layers_2_self_attn_v_proj_inlier_module_bias_to_fp16"), val = tensor<fp16, [1280]>(BLOBFILE(path = tensor<string, []>("@model_path/weights/weight.bin"), offset = tensor<uint64, []>(46369088)))];
            tensor<fp16, [1, 1280, 1, 1500]> var_692_cast_fp16 = conv(bias = layers_2_self_attn_v_proj_inlier_module_bias_to_fp16, dilations = var_692_dilations_0, groups = var_692_groups_0, pad = var_692_pad_0, pad_type = var_692_pad_type_0, strides = var_692_strides_0, weight = layers_2_self_attn_v_proj_inlier_module_weight_to_fp16_palettized, x = obj_9_cast_fp16)[name = tensor<string, []>("op_692_cast_fp16")];
            tensor<string, []> var_698_pad_type_0 = const()[name = tensor<string, []>("op_698_pad_type_0"), val = tensor<string, []>("valid")];
            tensor<int32, [2]> var_698_strides_0 = const()[name = tensor<string, []>("op_698_strides_0"), val = tensor<int32, [2]>([1, 1])];
            tensor<int32, [4]> var_698_pad_0 = const()[name = tensor<string, []>("op_698_pad_0"), val = tensor<int32, [4]>([0, 0, 0, 0])];
            tensor<int32, [2]> var_698_dilations_0 = const()[name = tensor<string, []>("op_698_dilations_0"), val = tensor<int32, [2]>([1, 1])];
            tensor<int32, []> var_698_groups_0 = const()[name = tensor<string, []>("op_698_groups_0"), val = tensor<int32, []>(1)];
            tensor<fp16, [1280, 1280, 1, 1]> layers_2_self_attn_v_proj_outlier_module_weight_to_fp16_sparsified = constexpr_sparse_to_dense()[mask = tensor<uint8, [204800]>(BLOBFILE(path = tensor<string, []>("@model_path/weights/weight.bin"), offset = tensor<uint64, []>(46410240))), name = tensor<string, []>("layers_2_self_attn_v_proj_outlier_module_weight_to_fp16_sparsified"), nonzero_data = tensor<fp16, [19205]>(BLOBFILE(path = tensor<string, []>("@model_path/weights/weight.bin"), offset = tensor<uint64, []>(46371712))), shape = tensor<uint32, [4]>([1280, 1280, 1, 1])];
            tensor<fp16, [1, 1280, 1, 1500]> var_698_cast_fp16 = conv(dilations = var_698_dilations_0, groups = var_698_groups_0, pad = var_698_pad_0, pad_type = var_698_pad_type_0, strides = var_698_strides_0, weight = layers_2_self_attn_v_proj_outlier_module_weight_to_fp16_sparsified, x = obj_9_cast_fp16)[name = tensor<string, []>("op_698_cast_fp16")];
            tensor<fp16, [1, 1280, 1, 1500]> value_5_cast_fp16 = add(x = var_692_cast_fp16, y = var_698_cast_fp16)[name = tensor<string, []>("value_5_cast_fp16")];
            tensor<int32, [4]> var_701 = const()[name = tensor<string, []>("op_701"), val = tensor<int32, [4]>([1, 20, 64, -1])];
            tensor<fp16, [1, 20, 64, 1500]> mh_q_5_cast_fp16 = reshape(shape = var_701, x = query_5_cast_fp16)[name = tensor<string, []>("mh_q_5_cast_fp16")];
            tensor<fp16, []> var_703_to_fp16 = const()[name = tensor<string, []>("op_703_to_fp16"), val = tensor<fp16, []>(0x1p-3)];
            tensor<fp16, [1, 20, 64, 1500]> var_704_cast_fp16 = mul(x = mh_q_5_cast_fp16, y = var_703_to_fp16)[name = tensor<string, []>("op_704_cast_fp16")];
            tensor<int32, [4]> var_705 = const()[name = tensor<string, []>("op_705"), val = tensor<int32, [4]>([1, 20, 64, -1])];
            tensor<fp16, [1, 20, 64, 1500]> var_706_cast_fp16 = reshape(shape = var_705, x = key_5_cast_fp16)[name = tensor<string, []>("op_706_cast_fp16")];
            tensor<bool, []> mh_w_5_transpose_x_0 = const()[name = tensor<string, []>("mh_w_5_transpose_x_0"), val = tensor<bool, []>(true)];
            tensor<bool, []> mh_w_5_transpose_y_0 = const()[name = tensor<string, []>("mh_w_5_transpose_y_0"), val = tensor<bool, []>(false)];
            tensor<fp16, [1, 20, 1500, 1500]> mh_w_5_cast_fp16 = matmul(transpose_x = mh_w_5_transpose_x_0, transpose_y = mh_w_5_transpose_y_0, x = var_704_cast_fp16, y = var_706_cast_fp16)[name = tensor<string, []>("mh_w_5_cast_fp16")];
            tensor<fp16, [1, 20, 1500, 1500]> var_709_cast_fp16 = softmax(axis = var_620, x = mh_w_5_cast_fp16)[name = tensor<string, []>("op_709_cast_fp16")];
            tensor<int32, [4]> var_710 = const()[name = tensor<string, []>("op_710"), val = tensor<int32, [4]>([1, 20, 64, -1])];
            tensor<fp16, [1, 20, 64, 1500]> var_711_cast_fp16 = reshape(shape = var_710, x = value_5_cast_fp16)[name = tensor<string, []>("op_711_cast_fp16")];
            tensor<bool, []> attn_5_transpose_x_0 = const()[name = tensor<string, []>("attn_5_transpose_x_0"), val = tensor<bool, []>(false)];
            tensor<bool, []> attn_5_transpose_y_0 = const()[name = tensor<string, []>("attn_5_transpose_y_0"), val = tensor<bool, []>(true)];
            tensor<fp16, [1, 20, 64, 1500]> attn_5_cast_fp16 = matmul(transpose_x = attn_5_transpose_x_0, transpose_y = attn_5_transpose_y_0, x = var_711_cast_fp16, y = var_709_cast_fp16)[name = tensor<string, []>("attn_5_cast_fp16")];
            tensor<int32, [4]> var_714 = const()[name = tensor<string, []>("op_714"), val = tensor<int32, [4]>([1, 1280, 1, -1])];
            tensor<fp16, [1, 1280, 1, 1500]> input_17_cast_fp16 = reshape(shape = var_714, x = attn_5_cast_fp16)[name = tensor<string, []>("input_17_cast_fp16")];
            tensor<string, []> var_724_pad_type_0 = const()[name = tensor<string, []>("op_724_pad_type_0"), val = tensor<string, []>("valid")];
            tensor<int32, [2]> var_724_strides_0 = const()[name = tensor<string, []>("op_724_strides_0"), val = tensor<int32, [2]>([1, 1])];
            tensor<int32, [4]> var_724_pad_0 = const()[name = tensor<string, []>("op_724_pad_0"), val = tensor<int32, [4]>([0, 0, 0, 0])];
            tensor<int32, [2]> var_724_dilations_0 = const()[name = tensor<string, []>("op_724_dilations_0"), val = tensor<int32, [2]>([1, 1])];
            tensor<int32, []> var_724_groups_0 = const()[name = tensor<string, []>("op_724_groups_0"), val = tensor<int32, []>(1)];
            tensor<fp16, [1280, 1280, 1, 1]> layers_2_self_attn_o_proj_inlier_module_weight_to_fp16_palettized = constexpr_lut_to_dense()[indices = tensor<uint8, [819200]>(BLOBFILE(path = tensor<string, []>("@model_path/weights/weight.bin"), offset = tensor<uint64, []>(46615104))), lut = tensor<fp16, [16]>(BLOBFILE(path = tensor<string, []>("@model_path/weights/weight.bin"), offset = tensor<uint64, []>(47434368))), name = tensor<string, []>("layers_2_self_attn_o_proj_inlier_module_weight_to_fp16_palettized"), shape = tensor<uint32, [4]>([1280, 1280, 1, 1])];
            tensor<fp16, [1280]> layers_2_self_attn_o_proj_inlier_module_bias_to_fp16 = const()[name = tensor<string, []>("layers_2_self_attn_o_proj_inlier_module_bias_to_fp16"), val = tensor<fp16, [1280]>(BLOBFILE(path = tensor<string, []>("@model_path/weights/weight.bin"), offset = tensor<uint64, []>(47434496)))];
            tensor<fp16, [1, 1280, 1, 1500]> var_724_cast_fp16 = conv(bias = layers_2_self_attn_o_proj_inlier_module_bias_to_fp16, dilations = var_724_dilations_0, groups = var_724_groups_0, pad = var_724_pad_0, pad_type = var_724_pad_type_0, strides = var_724_strides_0, weight = layers_2_self_attn_o_proj_inlier_module_weight_to_fp16_palettized, x = input_17_cast_fp16)[name = tensor<string, []>("op_724_cast_fp16")];
            tensor<string, []> var_730_pad_type_0 = const()[name = tensor<string, []>("op_730_pad_type_0"), val = tensor<string, []>("valid")];
            tensor<int32, [2]> var_730_strides_0 = const()[name = tensor<string, []>("op_730_strides_0"), val = tensor<int32, [2]>([1, 1])];
            tensor<int32, [4]> var_730_pad_0 = const()[name = tensor<string, []>("op_730_pad_0"), val = tensor<int32, [4]>([0, 0, 0, 0])];
            tensor<int32, [2]> var_730_dilations_0 = const()[name = tensor<string, []>("op_730_dilations_0"), val = tensor<int32, [2]>([1, 1])];
            tensor<int32, []> var_730_groups_0 = const()[name = tensor<string, []>("op_730_groups_0"), val = tensor<int32, []>(1)];
            tensor<fp16, [1280, 1280, 1, 1]> layers_2_self_attn_o_proj_outlier_module_weight_to_fp16_sparsified = constexpr_sparse_to_dense()[mask = tensor<uint8, [204800]>(BLOBFILE(path = tensor<string, []>("@model_path/weights/weight.bin"), offset = tensor<uint64, []>(47467328))), name = tensor<string, []>("layers_2_self_attn_o_proj_outlier_module_weight_to_fp16_sparsified"), nonzero_data = tensor<fp16, [15072]>(BLOBFILE(path = tensor<string, []>("@model_path/weights/weight.bin"), offset = tensor<uint64, []>(47437120))), shape = tensor<uint32, [4]>([1280, 1280, 1, 1])];
            tensor<fp16, [1, 1280, 1, 1500]> var_730_cast_fp16 = conv(dilations = var_730_dilations_0, groups = var_730_groups_0, pad = var_730_pad_0, pad_type = var_730_pad_type_0, strides = var_730_strides_0, weight = layers_2_self_attn_o_proj_outlier_module_weight_to_fp16_sparsified, x = input_17_cast_fp16)[name = tensor<string, []>("op_730_cast_fp16")];
            tensor<fp16, [1, 1280, 1, 1500]> obj_11_cast_fp16 = add(x = var_724_cast_fp16, y = var_730_cast_fp16)[name = tensor<string, []>("obj_11_cast_fp16")];
            tensor<fp16, [1, 1280, 1, 1500]> inputs_11_cast_fp16 = add(x = inputs_9_cast_fp16, y = obj_11_cast_fp16)[name = tensor<string, []>("inputs_11_cast_fp16")];
            tensor<int32, [1]> out_11_axes_0 = const()[name = tensor<string, []>("out_11_axes_0"), val = tensor<int32, [1]>([1])];
            tensor<fp16, []> var_741_to_fp16 = const()[name = tensor<string, []>("op_741_to_fp16"), val = tensor<fp16, []>(0x1.5p-17)];
            tensor<fp16, [1, 1280, 1, 1500]> out_11_cast_fp16 = layer_norm(axes = out_11_axes_0, epsilon = var_741_to_fp16, x = inputs_11_cast_fp16)[name = tensor<string, []>("out_11_cast_fp16")];
            tensor<fp16, [1280]> input_19_gamma_0_to_fp16 = const()[name = tensor<string, []>("input_19_gamma_0_to_fp16"), val = tensor<fp16, [1280]>(BLOBFILE(path = tensor<string, []>("@model_path/weights/weight.bin"), offset = tensor<uint64, []>(47672192)))];
            tensor<fp16, [1280]> input_19_beta_0_to_fp16 = const()[name = tensor<string, []>("input_19_beta_0_to_fp16"), val = tensor<fp16, [1280]>(BLOBFILE(path = tensor<string, []>("@model_path/weights/weight.bin"), offset = tensor<uint64, []>(47674816)))];
            tensor<fp16, []> input_19_epsilon_0_to_fp16 = const()[name = tensor<string, []>("input_19_epsilon_0_to_fp16"), val = tensor<fp16, []>(0x1.5p-17)];
            tensor<fp16, [1, 1280, 1, 1500]> input_19_cast_fp16 = batch_norm(beta = input_19_beta_0_to_fp16, epsilon = input_19_epsilon_0_to_fp16, gamma = input_19_gamma_0_to_fp16, mean = var_97_to_fp16, variance = obj_1_variance_0_to_fp16, x = out_11_cast_fp16)[name = tensor<string, []>("input_19_cast_fp16")];
            tensor<string, []> var_759_pad_type_0 = const()[name = tensor<string, []>("op_759_pad_type_0"), val = tensor<string, []>("valid")];
            tensor<int32, [2]> var_759_strides_0 = const()[name = tensor<string, []>("op_759_strides_0"), val = tensor<int32, [2]>([1, 1])];
            tensor<int32, [4]> var_759_pad_0 = const()[name = tensor<string, []>("op_759_pad_0"), val = tensor<int32, [4]>([0, 0, 0, 0])];
            tensor<int32, [2]> var_759_dilations_0 = const()[name = tensor<string, []>("op_759_dilations_0"), val = tensor<int32, [2]>([1, 1])];
            tensor<int32, []> var_759_groups_0 = const()[name = tensor<string, []>("op_759_groups_0"), val = tensor<int32, []>(1)];
            tensor<fp16, [5120, 1280, 1, 1]> layers_2_fc1_inlier_module_weight_to_fp16_palettized = constexpr_lut_to_dense()[indices = tensor<uint8, [3276800]>(BLOBFILE(path = tensor<string, []>("@model_path/weights/weight.bin"), offset = tensor<uint64, []>(47677440))), lut = tensor<fp16, [16]>(BLOBFILE(path = tensor<string, []>("@model_path/weights/weight.bin"), offset = tensor<uint64, []>(50954304))), name = tensor<string, []>("layers_2_fc1_inlier_module_weight_to_fp16_palettized"), shape = tensor<uint32, [4]>([5120, 1280, 1, 1])];
            tensor<fp16, [5120]> layers_2_fc1_inlier_module_bias_to_fp16 = const()[name = tensor<string, []>("layers_2_fc1_inlier_module_bias_to_fp16"), val = tensor<fp16, [5120]>(BLOBFILE(path = tensor<string, []>("@model_path/weights/weight.bin"), offset = tensor<uint64, []>(50954432)))];
            tensor<fp16, [1, 5120, 1, 1500]> var_759_cast_fp16 = conv(bias = layers_2_fc1_inlier_module_bias_to_fp16, dilations = var_759_dilations_0, groups = var_759_groups_0, pad = var_759_pad_0, pad_type = var_759_pad_type_0, strides = var_759_strides_0, weight = layers_2_fc1_inlier_module_weight_to_fp16_palettized, x = input_19_cast_fp16)[name = tensor<string, []>("op_759_cast_fp16")];
            tensor<string, []> var_765_pad_type_0 = const()[name = tensor<string, []>("op_765_pad_type_0"), val = tensor<string, []>("valid")];
            tensor<int32, [2]> var_765_strides_0 = const()[name = tensor<string, []>("op_765_strides_0"), val = tensor<int32, [2]>([1, 1])];
            tensor<int32, [4]> var_765_pad_0 = const()[name = tensor<string, []>("op_765_pad_0"), val = tensor<int32, [4]>([0, 0, 0, 0])];
            tensor<int32, [2]> var_765_dilations_0 = const()[name = tensor<string, []>("op_765_dilations_0"), val = tensor<int32, [2]>([1, 1])];
            tensor<int32, []> var_765_groups_0 = const()[name = tensor<string, []>("op_765_groups_0"), val = tensor<int32, []>(1)];
            tensor<fp16, [5120, 1280, 1, 1]> layers_2_fc1_outlier_module_weight_to_fp16_sparsified = constexpr_sparse_to_dense()[mask = tensor<uint8, [819200]>(BLOBFILE(path = tensor<string, []>("@model_path/weights/weight.bin"), offset = tensor<uint64, []>(51003008))), name = tensor<string, []>("layers_2_fc1_outlier_module_weight_to_fp16_sparsified"), nonzero_data = tensor<fp16, [19084]>(BLOBFILE(path = tensor<string, []>("@model_path/weights/weight.bin"), offset = tensor<uint64, []>(50964736))), shape = tensor<uint32, [4]>([5120, 1280, 1, 1])];
            tensor<fp16, [1, 5120, 1, 1500]> var_765_cast_fp16 = conv(dilations = var_765_dilations_0, groups = var_765_groups_0, pad = var_765_pad_0, pad_type = var_765_pad_type_0, strides = var_765_strides_0, weight = layers_2_fc1_outlier_module_weight_to_fp16_sparsified, x = input_19_cast_fp16)[name = tensor<string, []>("op_765_cast_fp16")];
            tensor<fp16, [1, 5120, 1, 1500]> input_21_cast_fp16 = add(x = var_759_cast_fp16, y = var_765_cast_fp16)[name = tensor<string, []>("input_21_cast_fp16")];
            tensor<string, []> input_23_mode_0 = const()[name = tensor<string, []>("input_23_mode_0"), val = tensor<string, []>("EXACT")];
            tensor<fp16, [1, 5120, 1, 1500]> input_23_cast_fp16 = gelu(mode = input_23_mode_0, x = input_21_cast_fp16)[name = tensor<string, []>("input_23_cast_fp16")];
            tensor<string, []> var_776_pad_type_0 = const()[name = tensor<string, []>("op_776_pad_type_0"), val = tensor<string, []>("valid")];
            tensor<int32, [2]> var_776_strides_0 = const()[name = tensor<string, []>("op_776_strides_0"), val = tensor<int32, [2]>([1, 1])];
            tensor<int32, [4]> var_776_pad_0 = const()[name = tensor<string, []>("op_776_pad_0"), val = tensor<int32, [4]>([0, 0, 0, 0])];
            tensor<int32, [2]> var_776_dilations_0 = const()[name = tensor<string, []>("op_776_dilations_0"), val = tensor<int32, [2]>([1, 1])];
            tensor<int32, []> var_776_groups_0 = const()[name = tensor<string, []>("op_776_groups_0"), val = tensor<int32, []>(1)];
            tensor<fp16, [1280, 5120, 1, 1]> layers_2_fc2_inlier_module_weight_to_fp16_palettized = constexpr_lut_to_dense()[indices = tensor<uint8, [3276800]>(BLOBFILE(path = tensor<string, []>("@model_path/weights/weight.bin"), offset = tensor<uint64, []>(51822272))), lut = tensor<fp16, [16]>(BLOBFILE(path = tensor<string, []>("@model_path/weights/weight.bin"), offset = tensor<uint64, []>(55099136))), name = tensor<string, []>("layers_2_fc2_inlier_module_weight_to_fp16_palettized"), shape = tensor<uint32, [4]>([1280, 5120, 1, 1])];
            tensor<fp16, [1280]> layers_2_fc2_inlier_module_bias_to_fp16 = const()[name = tensor<string, []>("layers_2_fc2_inlier_module_bias_to_fp16"), val = tensor<fp16, [1280]>(BLOBFILE(path = tensor<string, []>("@model_path/weights/weight.bin"), offset = tensor<uint64, []>(55099264)))];
            tensor<fp16, [1, 1280, 1, 1500]> var_776_cast_fp16 = conv(bias = layers_2_fc2_inlier_module_bias_to_fp16, dilations = var_776_dilations_0, groups = var_776_groups_0, pad = var_776_pad_0, pad_type = var_776_pad_type_0, strides = var_776_strides_0, weight = layers_2_fc2_inlier_module_weight_to_fp16_palettized, x = input_23_cast_fp16)[name = tensor<string, []>("op_776_cast_fp16")];
            tensor<string, []> var_782_pad_type_0 = const()[name = tensor<string, []>("op_782_pad_type_0"), val = tensor<string, []>("valid")];
            tensor<int32, [2]> var_782_strides_0 = const()[name = tensor<string, []>("op_782_strides_0"), val = tensor<int32, [2]>([1, 1])];
            tensor<int32, [4]> var_782_pad_0 = const()[name = tensor<string, []>("op_782_pad_0"), val = tensor<int32, [4]>([0, 0, 0, 0])];
            tensor<int32, [2]> var_782_dilations_0 = const()[name = tensor<string, []>("op_782_dilations_0"), val = tensor<int32, [2]>([1, 1])];
            tensor<int32, []> var_782_groups_0 = const()[name = tensor<string, []>("op_782_groups_0"), val = tensor<int32, []>(1)];
            tensor<fp16, [1280, 5120, 1, 1]> layers_2_fc2_outlier_module_weight_to_fp16_sparsified = constexpr_sparse_to_dense()[mask = tensor<uint8, [819200]>(BLOBFILE(path = tensor<string, []>("@model_path/weights/weight.bin"), offset = tensor<uint64, []>(55315392))), name = tensor<string, []>("layers_2_fc2_outlier_module_weight_to_fp16_sparsified"), nonzero_data = tensor<fp16, [106720]>(BLOBFILE(path = tensor<string, []>("@model_path/weights/weight.bin"), offset = tensor<uint64, []>(55101888))), shape = tensor<uint32, [4]>([1280, 5120, 1, 1])];
            tensor<fp16, [1, 1280, 1, 1500]> var_782_cast_fp16 = conv(dilations = var_782_dilations_0, groups = var_782_groups_0, pad = var_782_pad_0, pad_type = var_782_pad_type_0, strides = var_782_strides_0, weight = layers_2_fc2_outlier_module_weight_to_fp16_sparsified, x = input_23_cast_fp16)[name = tensor<string, []>("op_782_cast_fp16")];
            tensor<fp16, [1, 1280, 1, 1500]> hidden_states_9_cast_fp16 = add(x = var_776_cast_fp16, y = var_782_cast_fp16)[name = tensor<string, []>("hidden_states_9_cast_fp16")];
            tensor<fp16, [1, 1280, 1, 1500]> inputs_13_cast_fp16 = add(x = inputs_11_cast_fp16, y = hidden_states_9_cast_fp16)[name = tensor<string, []>("inputs_13_cast_fp16")];
            tensor<int32, []> var_792 = const()[name = tensor<string, []>("op_792"), val = tensor<int32, []>(3)];
            tensor<int32, [1]> out_13_axes_0 = const()[name = tensor<string, []>("out_13_axes_0"), val = tensor<int32, [1]>([1])];
            tensor<fp16, []> var_811_to_fp16 = const()[name = tensor<string, []>("op_811_to_fp16"), val = tensor<fp16, []>(0x1.5p-17)];
            tensor<fp16, [1, 1280, 1, 1500]> out_13_cast_fp16 = layer_norm(axes = out_13_axes_0, epsilon = var_811_to_fp16, x = inputs_13_cast_fp16)[name = tensor<string, []>("out_13_cast_fp16")];
            tensor<fp16, [1280]> obj_13_gamma_0_to_fp16 = const()[name = tensor<string, []>("obj_13_gamma_0_to_fp16"), val = tensor<fp16, [1280]>(BLOBFILE(path = tensor<string, []>("@model_path/weights/weight.bin"), offset = tensor<uint64, []>(56134656)))];
            tensor<fp16, [1280]> obj_13_beta_0_to_fp16 = const()[name = tensor<string, []>("obj_13_beta_0_to_fp16"), val = tensor<fp16, [1280]>(BLOBFILE(path = tensor<string, []>("@model_path/weights/weight.bin"), offset = tensor<uint64, []>(56137280)))];
            tensor<fp16, []> obj_13_epsilon_0_to_fp16 = const()[name = tensor<string, []>("obj_13_epsilon_0_to_fp16"), val = tensor<fp16, []>(0x1.5p-17)];
            tensor<fp16, [1, 1280, 1, 1500]> obj_13_cast_fp16 = batch_norm(beta = obj_13_beta_0_to_fp16, epsilon = obj_13_epsilon_0_to_fp16, gamma = obj_13_gamma_0_to_fp16, mean = var_97_to_fp16, variance = obj_1_variance_0_to_fp16, x = out_13_cast_fp16)[name = tensor<string, []>("obj_13_cast_fp16")];
            tensor<string, []> var_833_pad_type_0 = const()[name = tensor<string, []>("op_833_pad_type_0"), val = tensor<string, []>("valid")];
            tensor<int32, [2]> var_833_strides_0 = const()[name = tensor<string, []>("op_833_strides_0"), val = tensor<int32, [2]>([1, 1])];
            tensor<int32, [4]> var_833_pad_0 = const()[name = tensor<string, []>("op_833_pad_0"), val = tensor<int32, [4]>([0, 0, 0, 0])];
            tensor<int32, [2]> var_833_dilations_0 = const()[name = tensor<string, []>("op_833_dilations_0"), val = tensor<int32, [2]>([1, 1])];
            tensor<int32, []> var_833_groups_0 = const()[name = tensor<string, []>("op_833_groups_0"), val = tensor<int32, []>(1)];
            tensor<fp16, [1280, 1280, 1, 1]> layers_3_self_attn_q_proj_inlier_module_weight_to_fp16_palettized = constexpr_lut_to_dense()[indices = tensor<uint8, [819200]>(BLOBFILE(path = tensor<string, []>("@model_path/weights/weight.bin"), offset = tensor<uint64, []>(56139904))), lut = tensor<fp16, [16]>(BLOBFILE(path = tensor<string, []>("@model_path/weights/weight.bin"), offset = tensor<uint64, []>(56959168))), name = tensor<string, []>("layers_3_self_attn_q_proj_inlier_module_weight_to_fp16_palettized"), shape = tensor<uint32, [4]>([1280, 1280, 1, 1])];
            tensor<fp16, [1280]> layers_3_self_attn_q_proj_inlier_module_bias_to_fp16 = const()[name = tensor<string, []>("layers_3_self_attn_q_proj_inlier_module_bias_to_fp16"), val = tensor<fp16, [1280]>(BLOBFILE(path = tensor<string, []>("@model_path/weights/weight.bin"), offset = tensor<uint64, []>(56959296)))];
            tensor<fp16, [1, 1280, 1, 1500]> var_833_cast_fp16 = conv(bias = layers_3_self_attn_q_proj_inlier_module_bias_to_fp16, dilations = var_833_dilations_0, groups = var_833_groups_0, pad = var_833_pad_0, pad_type = var_833_pad_type_0, strides = var_833_strides_0, weight = layers_3_self_attn_q_proj_inlier_module_weight_to_fp16_palettized, x = obj_13_cast_fp16)[name = tensor<string, []>("op_833_cast_fp16")];
            tensor<string, []> var_839_pad_type_0 = const()[name = tensor<string, []>("op_839_pad_type_0"), val = tensor<string, []>("valid")];
            tensor<int32, [2]> var_839_strides_0 = const()[name = tensor<string, []>("op_839_strides_0"), val = tensor<int32, [2]>([1, 1])];
            tensor<int32, [4]> var_839_pad_0 = const()[name = tensor<string, []>("op_839_pad_0"), val = tensor<int32, [4]>([0, 0, 0, 0])];
            tensor<int32, [2]> var_839_dilations_0 = const()[name = tensor<string, []>("op_839_dilations_0"), val = tensor<int32, [2]>([1, 1])];
            tensor<int32, []> var_839_groups_0 = const()[name = tensor<string, []>("op_839_groups_0"), val = tensor<int32, []>(1)];
            tensor<fp16, [1280, 1280, 1, 1]> layers_3_self_attn_q_proj_outlier_module_weight_to_fp16_sparsified = constexpr_sparse_to_dense()[mask = tensor<uint8, [204800]>(BLOBFILE(path = tensor<string, []>("@model_path/weights/weight.bin"), offset = tensor<uint64, []>(57013184))), name = tensor<string, []>("layers_3_self_attn_q_proj_outlier_module_weight_to_fp16_sparsified"), nonzero_data = tensor<fp16, [25575]>(BLOBFILE(path = tensor<string, []>("@model_path/weights/weight.bin"), offset = tensor<uint64, []>(56961920))), shape = tensor<uint32, [4]>([1280, 1280, 1, 1])];
            tensor<fp16, [1, 1280, 1, 1500]> var_839_cast_fp16 = conv(dilations = var_839_dilations_0, groups = var_839_groups_0, pad = var_839_pad_0, pad_type = var_839_pad_type_0, strides = var_839_strides_0, weight = layers_3_self_attn_q_proj_outlier_module_weight_to_fp16_sparsified, x = obj_13_cast_fp16)[name = tensor<string, []>("op_839_cast_fp16")];
            tensor<fp16, [1, 1280, 1, 1500]> query_7_cast_fp16 = add(x = var_833_cast_fp16, y = var_839_cast_fp16)[name = tensor<string, []>("query_7_cast_fp16")];
            tensor<string, []> var_848_pad_type_0 = const()[name = tensor<string, []>("op_848_pad_type_0"), val = tensor<string, []>("valid")];
            tensor<int32, [2]> var_848_strides_0 = const()[name = tensor<string, []>("op_848_strides_0"), val = tensor<int32, [2]>([1, 1])];
            tensor<int32, [4]> var_848_pad_0 = const()[name = tensor<string, []>("op_848_pad_0"), val = tensor<int32, [4]>([0, 0, 0, 0])];
            tensor<int32, [2]> var_848_dilations_0 = const()[name = tensor<string, []>("op_848_dilations_0"), val = tensor<int32, [2]>([1, 1])];
            tensor<int32, []> var_848_groups_0 = const()[name = tensor<string, []>("op_848_groups_0"), val = tensor<int32, []>(1)];
            tensor<fp16, [1280, 1280, 1, 1]> layers_3_self_attn_k_proj_inlier_module_weight_to_fp16_palettized = constexpr_lut_to_dense()[indices = tensor<uint8, [819200]>(BLOBFILE(path = tensor<string, []>("@model_path/weights/weight.bin"), offset = tensor<uint64, []>(57218048))), lut = tensor<fp16, [16]>(BLOBFILE(path = tensor<string, []>("@model_path/weights/weight.bin"), offset = tensor<uint64, []>(58037312))), name = tensor<string, []>("layers_3_self_attn_k_proj_inlier_module_weight_to_fp16_palettized"), shape = tensor<uint32, [4]>([1280, 1280, 1, 1])];
            tensor<fp16, [1, 1280, 1, 1500]> var_848_cast_fp16 = conv(dilations = var_848_dilations_0, groups = var_848_groups_0, pad = var_848_pad_0, pad_type = var_848_pad_type_0, strides = var_848_strides_0, weight = layers_3_self_attn_k_proj_inlier_module_weight_to_fp16_palettized, x = obj_13_cast_fp16)[name = tensor<string, []>("op_848_cast_fp16")];
            tensor<string, []> var_854_pad_type_0 = const()[name = tensor<string, []>("op_854_pad_type_0"), val = tensor<string, []>("valid")];
            tensor<int32, [2]> var_854_strides_0 = const()[name = tensor<string, []>("op_854_strides_0"), val = tensor<int32, [2]>([1, 1])];
            tensor<int32, [4]> var_854_pad_0 = const()[name = tensor<string, []>("op_854_pad_0"), val = tensor<int32, [4]>([0, 0, 0, 0])];
            tensor<int32, [2]> var_854_dilations_0 = const()[name = tensor<string, []>("op_854_dilations_0"), val = tensor<int32, [2]>([1, 1])];
            tensor<int32, []> var_854_groups_0 = const()[name = tensor<string, []>("op_854_groups_0"), val = tensor<int32, []>(1)];
            tensor<fp16, [1280, 1280, 1, 1]> layers_3_self_attn_k_proj_outlier_module_weight_to_fp16_sparsified = constexpr_sparse_to_dense()[mask = tensor<uint8, [204800]>(BLOBFILE(path = tensor<string, []>("@model_path/weights/weight.bin"), offset = tensor<uint64, []>(58077888))), name = tensor<string, []>("layers_3_self_attn_k_proj_outlier_module_weight_to_fp16_sparsified"), nonzero_data = tensor<fp16, [20191]>(BLOBFILE(path = tensor<string, []>("@model_path/weights/weight.bin"), offset = tensor<uint64, []>(58037440))), shape = tensor<uint32, [4]>([1280, 1280, 1, 1])];
            tensor<fp16, [1, 1280, 1, 1500]> var_854_cast_fp16 = conv(dilations = var_854_dilations_0, groups = var_854_groups_0, pad = var_854_pad_0, pad_type = var_854_pad_type_0, strides = var_854_strides_0, weight = layers_3_self_attn_k_proj_outlier_module_weight_to_fp16_sparsified, x = obj_13_cast_fp16)[name = tensor<string, []>("op_854_cast_fp16")];
            tensor<fp16, [1, 1280, 1, 1500]> key_7_cast_fp16 = add(x = var_848_cast_fp16, y = var_854_cast_fp16)[name = tensor<string, []>("key_7_cast_fp16")];
            tensor<string, []> var_864_pad_type_0 = const()[name = tensor<string, []>("op_864_pad_type_0"), val = tensor<string, []>("valid")];
            tensor<int32, [2]> var_864_strides_0 = const()[name = tensor<string, []>("op_864_strides_0"), val = tensor<int32, [2]>([1, 1])];
            tensor<int32, [4]> var_864_pad_0 = const()[name = tensor<string, []>("op_864_pad_0"), val = tensor<int32, [4]>([0, 0, 0, 0])];
            tensor<int32, [2]> var_864_dilations_0 = const()[name = tensor<string, []>("op_864_dilations_0"), val = tensor<int32, [2]>([1, 1])];
            tensor<int32, []> var_864_groups_0 = const()[name = tensor<string, []>("op_864_groups_0"), val = tensor<int32, []>(1)];
            tensor<fp16, [1280, 1280, 1, 1]> layers_3_self_attn_v_proj_inlier_module_weight_to_fp16_palettized = constexpr_lut_to_dense()[indices = tensor<uint8, [819200]>(BLOBFILE(path = tensor<string, []>("@model_path/weights/weight.bin"), offset = tensor<uint64, []>(58282752))), lut = tensor<fp16, [16]>(BLOBFILE(path = tensor<string, []>("@model_path/weights/weight.bin"), offset = tensor<uint64, []>(59102016))), name = tensor<string, []>("layers_3_self_attn_v_proj_inlier_module_weight_to_fp16_palettized"), shape = tensor<uint32, [4]>([1280, 1280, 1, 1])];
            tensor<fp16, [1280]> layers_3_self_attn_v_proj_inlier_module_bias_to_fp16 = const()[name = tensor<string, []>("layers_3_self_attn_v_proj_inlier_module_bias_to_fp16"), val = tensor<fp16, [1280]>(BLOBFILE(path = tensor<string, []>("@model_path/weights/weight.bin"), offset = tensor<uint64, []>(59102144)))];
            tensor<fp16, [1, 1280, 1, 1500]> var_864_cast_fp16 = conv(bias = layers_3_self_attn_v_proj_inlier_module_bias_to_fp16, dilations = var_864_dilations_0, groups = var_864_groups_0, pad = var_864_pad_0, pad_type = var_864_pad_type_0, strides = var_864_strides_0, weight = layers_3_self_attn_v_proj_inlier_module_weight_to_fp16_palettized, x = obj_13_cast_fp16)[name = tensor<string, []>("op_864_cast_fp16")];
            tensor<string, []> var_870_pad_type_0 = const()[name = tensor<string, []>("op_870_pad_type_0"), val = tensor<string, []>("valid")];
            tensor<int32, [2]> var_870_strides_0 = const()[name = tensor<string, []>("op_870_strides_0"), val = tensor<int32, [2]>([1, 1])];
            tensor<int32, [4]> var_870_pad_0 = const()[name = tensor<string, []>("op_870_pad_0"), val = tensor<int32, [4]>([0, 0, 0, 0])];
            tensor<int32, [2]> var_870_dilations_0 = const()[name = tensor<string, []>("op_870_dilations_0"), val = tensor<int32, [2]>([1, 1])];
            tensor<int32, []> var_870_groups_0 = const()[name = tensor<string, []>("op_870_groups_0"), val = tensor<int32, []>(1)];
            tensor<fp16, [1280, 1280, 1, 1]> layers_3_self_attn_v_proj_outlier_module_weight_to_fp16_sparsified = constexpr_sparse_to_dense()[mask = tensor<uint8, [204800]>(BLOBFILE(path = tensor<string, []>("@model_path/weights/weight.bin"), offset = tensor<uint64, []>(59138432))), name = tensor<string, []>("layers_3_self_attn_v_proj_outlier_module_weight_to_fp16_sparsified"), nonzero_data = tensor<fp16, [16773]>(BLOBFILE(path = tensor<string, []>("@model_path/weights/weight.bin"), offset = tensor<uint64, []>(59104768))), shape = tensor<uint32, [4]>([1280, 1280, 1, 1])];
            tensor<fp16, [1, 1280, 1, 1500]> var_870_cast_fp16 = conv(dilations = var_870_dilations_0, groups = var_870_groups_0, pad = var_870_pad_0, pad_type = var_870_pad_type_0, strides = var_870_strides_0, weight = layers_3_self_attn_v_proj_outlier_module_weight_to_fp16_sparsified, x = obj_13_cast_fp16)[name = tensor<string, []>("op_870_cast_fp16")];
            tensor<fp16, [1, 1280, 1, 1500]> value_7_cast_fp16 = add(x = var_864_cast_fp16, y = var_870_cast_fp16)[name = tensor<string, []>("value_7_cast_fp16")];
            tensor<int32, [4]> var_873 = const()[name = tensor<string, []>("op_873"), val = tensor<int32, [4]>([1, 20, 64, -1])];
            tensor<fp16, [1, 20, 64, 1500]> mh_q_7_cast_fp16 = reshape(shape = var_873, x = query_7_cast_fp16)[name = tensor<string, []>("mh_q_7_cast_fp16")];
            tensor<fp16, []> var_875_to_fp16 = const()[name = tensor<string, []>("op_875_to_fp16"), val = tensor<fp16, []>(0x1p-3)];
            tensor<fp16, [1, 20, 64, 1500]> var_876_cast_fp16 = mul(x = mh_q_7_cast_fp16, y = var_875_to_fp16)[name = tensor<string, []>("op_876_cast_fp16")];
            tensor<int32, [4]> var_877 = const()[name = tensor<string, []>("op_877"), val = tensor<int32, [4]>([1, 20, 64, -1])];
            tensor<fp16, [1, 20, 64, 1500]> var_878_cast_fp16 = reshape(shape = var_877, x = key_7_cast_fp16)[name = tensor<string, []>("op_878_cast_fp16")];
            tensor<bool, []> mh_w_7_transpose_x_0 = const()[name = tensor<string, []>("mh_w_7_transpose_x_0"), val = tensor<bool, []>(true)];
            tensor<bool, []> mh_w_7_transpose_y_0 = const()[name = tensor<string, []>("mh_w_7_transpose_y_0"), val = tensor<bool, []>(false)];
            tensor<fp16, [1, 20, 1500, 1500]> mh_w_7_cast_fp16 = matmul(transpose_x = mh_w_7_transpose_x_0, transpose_y = mh_w_7_transpose_y_0, x = var_876_cast_fp16, y = var_878_cast_fp16)[name = tensor<string, []>("mh_w_7_cast_fp16")];
            tensor<fp16, [1, 20, 1500, 1500]> var_881_cast_fp16 = softmax(axis = var_792, x = mh_w_7_cast_fp16)[name = tensor<string, []>("op_881_cast_fp16")];
            tensor<int32, [4]> var_882 = const()[name = tensor<string, []>("op_882"), val = tensor<int32, [4]>([1, 20, 64, -1])];
            tensor<fp16, [1, 20, 64, 1500]> var_883_cast_fp16 = reshape(shape = var_882, x = value_7_cast_fp16)[name = tensor<string, []>("op_883_cast_fp16")];
            tensor<bool, []> attn_7_transpose_x_0 = const()[name = tensor<string, []>("attn_7_transpose_x_0"), val = tensor<bool, []>(false)];
            tensor<bool, []> attn_7_transpose_y_0 = const()[name = tensor<string, []>("attn_7_transpose_y_0"), val = tensor<bool, []>(true)];
            tensor<fp16, [1, 20, 64, 1500]> attn_7_cast_fp16 = matmul(transpose_x = attn_7_transpose_x_0, transpose_y = attn_7_transpose_y_0, x = var_883_cast_fp16, y = var_881_cast_fp16)[name = tensor<string, []>("attn_7_cast_fp16")];
            tensor<int32, [4]> var_886 = const()[name = tensor<string, []>("op_886"), val = tensor<int32, [4]>([1, 1280, 1, -1])];
            tensor<fp16, [1, 1280, 1, 1500]> input_25_cast_fp16 = reshape(shape = var_886, x = attn_7_cast_fp16)[name = tensor<string, []>("input_25_cast_fp16")];
            tensor<string, []> var_896_pad_type_0 = const()[name = tensor<string, []>("op_896_pad_type_0"), val = tensor<string, []>("valid")];
            tensor<int32, [2]> var_896_strides_0 = const()[name = tensor<string, []>("op_896_strides_0"), val = tensor<int32, [2]>([1, 1])];
            tensor<int32, [4]> var_896_pad_0 = const()[name = tensor<string, []>("op_896_pad_0"), val = tensor<int32, [4]>([0, 0, 0, 0])];
            tensor<int32, [2]> var_896_dilations_0 = const()[name = tensor<string, []>("op_896_dilations_0"), val = tensor<int32, [2]>([1, 1])];
            tensor<int32, []> var_896_groups_0 = const()[name = tensor<string, []>("op_896_groups_0"), val = tensor<int32, []>(1)];
            tensor<fp16, [1280, 1280, 1, 1]> layers_3_self_attn_o_proj_inlier_module_weight_to_fp16_palettized = constexpr_lut_to_dense()[indices = tensor<uint8, [819200]>(BLOBFILE(path = tensor<string, []>("@model_path/weights/weight.bin"), offset = tensor<uint64, []>(59343296))), lut = tensor<fp16, [16]>(BLOBFILE(path = tensor<string, []>("@model_path/weights/weight.bin"), offset = tensor<uint64, []>(60162560))), name = tensor<string, []>("layers_3_self_attn_o_proj_inlier_module_weight_to_fp16_palettized"), shape = tensor<uint32, [4]>([1280, 1280, 1, 1])];
            tensor<fp16, [1280]> layers_3_self_attn_o_proj_inlier_module_bias_to_fp16 = const()[name = tensor<string, []>("layers_3_self_attn_o_proj_inlier_module_bias_to_fp16"), val = tensor<fp16, [1280]>(BLOBFILE(path = tensor<string, []>("@model_path/weights/weight.bin"), offset = tensor<uint64, []>(60162688)))];
            tensor<fp16, [1, 1280, 1, 1500]> var_896_cast_fp16 = conv(bias = layers_3_self_attn_o_proj_inlier_module_bias_to_fp16, dilations = var_896_dilations_0, groups = var_896_groups_0, pad = var_896_pad_0, pad_type = var_896_pad_type_0, strides = var_896_strides_0, weight = layers_3_self_attn_o_proj_inlier_module_weight_to_fp16_palettized, x = input_25_cast_fp16)[name = tensor<string, []>("op_896_cast_fp16")];
            tensor<string, []> var_902_pad_type_0 = const()[name = tensor<string, []>("op_902_pad_type_0"), val = tensor<string, []>("valid")];
            tensor<int32, [2]> var_902_strides_0 = const()[name = tensor<string, []>("op_902_strides_0"), val = tensor<int32, [2]>([1, 1])];
            tensor<int32, [4]> var_902_pad_0 = const()[name = tensor<string, []>("op_902_pad_0"), val = tensor<int32, [4]>([0, 0, 0, 0])];
            tensor<int32, [2]> var_902_dilations_0 = const()[name = tensor<string, []>("op_902_dilations_0"), val = tensor<int32, [2]>([1, 1])];
            tensor<int32, []> var_902_groups_0 = const()[name = tensor<string, []>("op_902_groups_0"), val = tensor<int32, []>(1)];
            tensor<fp16, [1280, 1280, 1, 1]> layers_3_self_attn_o_proj_outlier_module_weight_to_fp16_sparsified = constexpr_sparse_to_dense()[mask = tensor<uint8, [204800]>(BLOBFILE(path = tensor<string, []>("@model_path/weights/weight.bin"), offset = tensor<uint64, []>(60188096))), name = tensor<string, []>("layers_3_self_attn_o_proj_outlier_module_weight_to_fp16_sparsified"), nonzero_data = tensor<fp16, [11350]>(BLOBFILE(path = tensor<string, []>("@model_path/weights/weight.bin"), offset = tensor<uint64, []>(60165312))), shape = tensor<uint32, [4]>([1280, 1280, 1, 1])];
            tensor<fp16, [1, 1280, 1, 1500]> var_902_cast_fp16 = conv(dilations = var_902_dilations_0, groups = var_902_groups_0, pad = var_902_pad_0, pad_type = var_902_pad_type_0, strides = var_902_strides_0, weight = layers_3_self_attn_o_proj_outlier_module_weight_to_fp16_sparsified, x = input_25_cast_fp16)[name = tensor<string, []>("op_902_cast_fp16")];
            tensor<fp16, [1, 1280, 1, 1500]> obj_15_cast_fp16 = add(x = var_896_cast_fp16, y = var_902_cast_fp16)[name = tensor<string, []>("obj_15_cast_fp16")];
            tensor<fp16, [1, 1280, 1, 1500]> inputs_15_cast_fp16 = add(x = inputs_13_cast_fp16, y = obj_15_cast_fp16)[name = tensor<string, []>("inputs_15_cast_fp16")];
            tensor<int32, [1]> out_15_axes_0 = const()[name = tensor<string, []>("out_15_axes_0"), val = tensor<int32, [1]>([1])];
            tensor<fp16, []> var_913_to_fp16 = const()[name = tensor<string, []>("op_913_to_fp16"), val = tensor<fp16, []>(0x1.5p-17)];
            tensor<fp16, [1, 1280, 1, 1500]> out_15_cast_fp16 = layer_norm(axes = out_15_axes_0, epsilon = var_913_to_fp16, x = inputs_15_cast_fp16)[name = tensor<string, []>("out_15_cast_fp16")];
            tensor<fp16, [1280]> input_27_gamma_0_to_fp16 = const()[name = tensor<string, []>("input_27_gamma_0_to_fp16"), val = tensor<fp16, [1280]>(BLOBFILE(path = tensor<string, []>("@model_path/weights/weight.bin"), offset = tensor<uint64, []>(60392960)))];
            tensor<fp16, [1280]> input_27_beta_0_to_fp16 = const()[name = tensor<string, []>("input_27_beta_0_to_fp16"), val = tensor<fp16, [1280]>(BLOBFILE(path = tensor<string, []>("@model_path/weights/weight.bin"), offset = tensor<uint64, []>(60395584)))];
            tensor<fp16, []> input_27_epsilon_0_to_fp16 = const()[name = tensor<string, []>("input_27_epsilon_0_to_fp16"), val = tensor<fp16, []>(0x1.5p-17)];
            tensor<fp16, [1, 1280, 1, 1500]> input_27_cast_fp16 = batch_norm(beta = input_27_beta_0_to_fp16, epsilon = input_27_epsilon_0_to_fp16, gamma = input_27_gamma_0_to_fp16, mean = var_97_to_fp16, variance = obj_1_variance_0_to_fp16, x = out_15_cast_fp16)[name = tensor<string, []>("input_27_cast_fp16")];
            tensor<string, []> var_931_pad_type_0 = const()[name = tensor<string, []>("op_931_pad_type_0"), val = tensor<string, []>("valid")];
            tensor<int32, [2]> var_931_strides_0 = const()[name = tensor<string, []>("op_931_strides_0"), val = tensor<int32, [2]>([1, 1])];
            tensor<int32, [4]> var_931_pad_0 = const()[name = tensor<string, []>("op_931_pad_0"), val = tensor<int32, [4]>([0, 0, 0, 0])];
            tensor<int32, [2]> var_931_dilations_0 = const()[name = tensor<string, []>("op_931_dilations_0"), val = tensor<int32, [2]>([1, 1])];
            tensor<int32, []> var_931_groups_0 = const()[name = tensor<string, []>("op_931_groups_0"), val = tensor<int32, []>(1)];
            tensor<fp16, [5120, 1280, 1, 1]> layers_3_fc1_inlier_module_weight_to_fp16_palettized = constexpr_lut_to_dense()[indices = tensor<uint8, [3276800]>(BLOBFILE(path = tensor<string, []>("@model_path/weights/weight.bin"), offset = tensor<uint64, []>(60398208))), lut = tensor<fp16, [16]>(BLOBFILE(path = tensor<string, []>("@model_path/weights/weight.bin"), offset = tensor<uint64, []>(63675072))), name = tensor<string, []>("layers_3_fc1_inlier_module_weight_to_fp16_palettized"), shape = tensor<uint32, [4]>([5120, 1280, 1, 1])];
            tensor<fp16, [5120]> layers_3_fc1_inlier_module_bias_to_fp16 = const()[name = tensor<string, []>("layers_3_fc1_inlier_module_bias_to_fp16"), val = tensor<fp16, [5120]>(BLOBFILE(path = tensor<string, []>("@model_path/weights/weight.bin"), offset = tensor<uint64, []>(63675200)))];
            tensor<fp16, [1, 5120, 1, 1500]> var_931_cast_fp16 = conv(bias = layers_3_fc1_inlier_module_bias_to_fp16, dilations = var_931_dilations_0, groups = var_931_groups_0, pad = var_931_pad_0, pad_type = var_931_pad_type_0, strides = var_931_strides_0, weight = layers_3_fc1_inlier_module_weight_to_fp16_palettized, x = input_27_cast_fp16)[name = tensor<string, []>("op_931_cast_fp16")];
            tensor<string, []> var_937_pad_type_0 = const()[name = tensor<string, []>("op_937_pad_type_0"), val = tensor<string, []>("valid")];
            tensor<int32, [2]> var_937_strides_0 = const()[name = tensor<string, []>("op_937_strides_0"), val = tensor<int32, [2]>([1, 1])];
            tensor<int32, [4]> var_937_pad_0 = const()[name = tensor<string, []>("op_937_pad_0"), val = tensor<int32, [4]>([0, 0, 0, 0])];
            tensor<int32, [2]> var_937_dilations_0 = const()[name = tensor<string, []>("op_937_dilations_0"), val = tensor<int32, [2]>([1, 1])];
            tensor<int32, []> var_937_groups_0 = const()[name = tensor<string, []>("op_937_groups_0"), val = tensor<int32, []>(1)];
            tensor<fp16, [5120, 1280, 1, 1]> layers_3_fc1_outlier_module_weight_to_fp16_sparsified = constexpr_sparse_to_dense()[mask = tensor<uint8, [819200]>(BLOBFILE(path = tensor<string, []>("@model_path/weights/weight.bin"), offset = tensor<uint64, []>(63740864))), name = tensor<string, []>("layers_3_fc1_outlier_module_weight_to_fp16_sparsified"), nonzero_data = tensor<fp16, [27622]>(BLOBFILE(path = tensor<string, []>("@model_path/weights/weight.bin"), offset = tensor<uint64, []>(63685504))), shape = tensor<uint32, [4]>([5120, 1280, 1, 1])];
            tensor<fp16, [1, 5120, 1, 1500]> var_937_cast_fp16 = conv(dilations = var_937_dilations_0, groups = var_937_groups_0, pad = var_937_pad_0, pad_type = var_937_pad_type_0, strides = var_937_strides_0, weight = layers_3_fc1_outlier_module_weight_to_fp16_sparsified, x = input_27_cast_fp16)[name = tensor<string, []>("op_937_cast_fp16")];
            tensor<fp16, [1, 5120, 1, 1500]> input_29_cast_fp16 = add(x = var_931_cast_fp16, y = var_937_cast_fp16)[name = tensor<string, []>("input_29_cast_fp16")];
            tensor<string, []> input_31_mode_0 = const()[name = tensor<string, []>("input_31_mode_0"), val = tensor<string, []>("EXACT")];
            tensor<fp16, [1, 5120, 1, 1500]> input_31_cast_fp16 = gelu(mode = input_31_mode_0, x = input_29_cast_fp16)[name = tensor<string, []>("input_31_cast_fp16")];
            tensor<string, []> var_948_pad_type_0 = const()[name = tensor<string, []>("op_948_pad_type_0"), val = tensor<string, []>("valid")];
            tensor<int32, [2]> var_948_strides_0 = const()[name = tensor<string, []>("op_948_strides_0"), val = tensor<int32, [2]>([1, 1])];
            tensor<int32, [4]> var_948_pad_0 = const()[name = tensor<string, []>("op_948_pad_0"), val = tensor<int32, [4]>([0, 0, 0, 0])];
            tensor<int32, [2]> var_948_dilations_0 = const()[name = tensor<string, []>("op_948_dilations_0"), val = tensor<int32, [2]>([1, 1])];
            tensor<int32, []> var_948_groups_0 = const()[name = tensor<string, []>("op_948_groups_0"), val = tensor<int32, []>(1)];
            tensor<fp16, [1280, 5120, 1, 1]> layers_3_fc2_inlier_module_weight_to_fp16_palettized = constexpr_lut_to_dense()[indices = tensor<uint8, [3276800]>(BLOBFILE(path = tensor<string, []>("@model_path/weights/weight.bin"), offset = tensor<uint64, []>(64560128))), lut = tensor<fp16, [16]>(BLOBFILE(path = tensor<string, []>("@model_path/weights/weight.bin"), offset = tensor<uint64, []>(67836992))), name = tensor<string, []>("layers_3_fc2_inlier_module_weight_to_fp16_palettized"), shape = tensor<uint32, [4]>([1280, 5120, 1, 1])];
            tensor<fp16, [1280]> layers_3_fc2_inlier_module_bias_to_fp16 = const()[name = tensor<string, []>("layers_3_fc2_inlier_module_bias_to_fp16"), val = tensor<fp16, [1280]>(BLOBFILE(path = tensor<string, []>("@model_path/weights/weight.bin"), offset = tensor<uint64, []>(67837120)))];
            tensor<fp16, [1, 1280, 1, 1500]> var_948_cast_fp16 = conv(bias = layers_3_fc2_inlier_module_bias_to_fp16, dilations = var_948_dilations_0, groups = var_948_groups_0, pad = var_948_pad_0, pad_type = var_948_pad_type_0, strides = var_948_strides_0, weight = layers_3_fc2_inlier_module_weight_to_fp16_palettized, x = input_31_cast_fp16)[name = tensor<string, []>("op_948_cast_fp16")];
            tensor<string, []> var_954_pad_type_0 = const()[name = tensor<string, []>("op_954_pad_type_0"), val = tensor<string, []>("valid")];
            tensor<int32, [2]> var_954_strides_0 = const()[name = tensor<string, []>("op_954_strides_0"), val = tensor<int32, [2]>([1, 1])];
            tensor<int32, [4]> var_954_pad_0 = const()[name = tensor<string, []>("op_954_pad_0"), val = tensor<int32, [4]>([0, 0, 0, 0])];
            tensor<int32, [2]> var_954_dilations_0 = const()[name = tensor<string, []>("op_954_dilations_0"), val = tensor<int32, [2]>([1, 1])];
            tensor<int32, []> var_954_groups_0 = const()[name = tensor<string, []>("op_954_groups_0"), val = tensor<int32, []>(1)];
            tensor<fp16, [1280, 5120, 1, 1]> layers_3_fc2_outlier_module_weight_to_fp16_sparsified = constexpr_sparse_to_dense()[mask = tensor<uint8, [819200]>(BLOBFILE(path = tensor<string, []>("@model_path/weights/weight.bin"), offset = tensor<uint64, []>(68064960))), name = tensor<string, []>("layers_3_fc2_outlier_module_weight_to_fp16_sparsified"), nonzero_data = tensor<fp16, [112545]>(BLOBFILE(path = tensor<string, []>("@model_path/weights/weight.bin"), offset = tensor<uint64, []>(67839744))), shape = tensor<uint32, [4]>([1280, 5120, 1, 1])];
            tensor<fp16, [1, 1280, 1, 1500]> var_954_cast_fp16 = conv(dilations = var_954_dilations_0, groups = var_954_groups_0, pad = var_954_pad_0, pad_type = var_954_pad_type_0, strides = var_954_strides_0, weight = layers_3_fc2_outlier_module_weight_to_fp16_sparsified, x = input_31_cast_fp16)[name = tensor<string, []>("op_954_cast_fp16")];
            tensor<fp16, [1, 1280, 1, 1500]> hidden_states_11_cast_fp16 = add(x = var_948_cast_fp16, y = var_954_cast_fp16)[name = tensor<string, []>("hidden_states_11_cast_fp16")];
            tensor<fp16, [1, 1280, 1, 1500]> inputs_17_cast_fp16 = add(x = inputs_15_cast_fp16, y = hidden_states_11_cast_fp16)[name = tensor<string, []>("inputs_17_cast_fp16")];
            tensor<int32, []> var_964 = const()[name = tensor<string, []>("op_964"), val = tensor<int32, []>(3)];
            tensor<int32, [1]> out_17_axes_0 = const()[name = tensor<string, []>("out_17_axes_0"), val = tensor<int32, [1]>([1])];
            tensor<fp16, []> var_983_to_fp16 = const()[name = tensor<string, []>("op_983_to_fp16"), val = tensor<fp16, []>(0x1.5p-17)];
            tensor<fp16, [1, 1280, 1, 1500]> out_17_cast_fp16 = layer_norm(axes = out_17_axes_0, epsilon = var_983_to_fp16, x = inputs_17_cast_fp16)[name = tensor<string, []>("out_17_cast_fp16")];
            tensor<fp16, [1280]> obj_17_gamma_0_to_fp16 = const()[name = tensor<string, []>("obj_17_gamma_0_to_fp16"), val = tensor<fp16, [1280]>(BLOBFILE(path = tensor<string, []>("@model_path/weights/weight.bin"), offset = tensor<uint64, []>(68884224)))];
            tensor<fp16, [1280]> obj_17_beta_0_to_fp16 = const()[name = tensor<string, []>("obj_17_beta_0_to_fp16"), val = tensor<fp16, [1280]>(BLOBFILE(path = tensor<string, []>("@model_path/weights/weight.bin"), offset = tensor<uint64, []>(68886848)))];
            tensor<fp16, []> obj_17_epsilon_0_to_fp16 = const()[name = tensor<string, []>("obj_17_epsilon_0_to_fp16"), val = tensor<fp16, []>(0x1.5p-17)];
            tensor<fp16, [1, 1280, 1, 1500]> obj_17_cast_fp16 = batch_norm(beta = obj_17_beta_0_to_fp16, epsilon = obj_17_epsilon_0_to_fp16, gamma = obj_17_gamma_0_to_fp16, mean = var_97_to_fp16, variance = obj_1_variance_0_to_fp16, x = out_17_cast_fp16)[name = tensor<string, []>("obj_17_cast_fp16")];
            tensor<string, []> var_1005_pad_type_0 = const()[name = tensor<string, []>("op_1005_pad_type_0"), val = tensor<string, []>("valid")];
            tensor<int32, [2]> var_1005_strides_0 = const()[name = tensor<string, []>("op_1005_strides_0"), val = tensor<int32, [2]>([1, 1])];
            tensor<int32, [4]> var_1005_pad_0 = const()[name = tensor<string, []>("op_1005_pad_0"), val = tensor<int32, [4]>([0, 0, 0, 0])];
            tensor<int32, [2]> var_1005_dilations_0 = const()[name = tensor<string, []>("op_1005_dilations_0"), val = tensor<int32, [2]>([1, 1])];
            tensor<int32, []> var_1005_groups_0 = const()[name = tensor<string, []>("op_1005_groups_0"), val = tensor<int32, []>(1)];
            tensor<fp16, [1280, 1280, 1, 1]> layers_4_self_attn_q_proj_inlier_module_weight_to_fp16_palettized = constexpr_lut_to_dense()[indices = tensor<uint8, [819200]>(BLOBFILE(path = tensor<string, []>("@model_path/weights/weight.bin"), offset = tensor<uint64, []>(68889472))), lut = tensor<fp16, [16]>(BLOBFILE(path = tensor<string, []>("@model_path/weights/weight.bin"), offset = tensor<uint64, []>(69708736))), name = tensor<string, []>("layers_4_self_attn_q_proj_inlier_module_weight_to_fp16_palettized"), shape = tensor<uint32, [4]>([1280, 1280, 1, 1])];
            tensor<fp16, [1280]> layers_4_self_attn_q_proj_inlier_module_bias_to_fp16 = const()[name = tensor<string, []>("layers_4_self_attn_q_proj_inlier_module_bias_to_fp16"), val = tensor<fp16, [1280]>(BLOBFILE(path = tensor<string, []>("@model_path/weights/weight.bin"), offset = tensor<uint64, []>(69708864)))];
            tensor<fp16, [1, 1280, 1, 1500]> var_1005_cast_fp16 = conv(bias = layers_4_self_attn_q_proj_inlier_module_bias_to_fp16, dilations = var_1005_dilations_0, groups = var_1005_groups_0, pad = var_1005_pad_0, pad_type = var_1005_pad_type_0, strides = var_1005_strides_0, weight = layers_4_self_attn_q_proj_inlier_module_weight_to_fp16_palettized, x = obj_17_cast_fp16)[name = tensor<string, []>("op_1005_cast_fp16")];
            tensor<string, []> var_1011_pad_type_0 = const()[name = tensor<string, []>("op_1011_pad_type_0"), val = tensor<string, []>("valid")];
            tensor<int32, [2]> var_1011_strides_0 = const()[name = tensor<string, []>("op_1011_strides_0"), val = tensor<int32, [2]>([1, 1])];
            tensor<int32, [4]> var_1011_pad_0 = const()[name = tensor<string, []>("op_1011_pad_0"), val = tensor<int32, [4]>([0, 0, 0, 0])];
            tensor<int32, [2]> var_1011_dilations_0 = const()[name = tensor<string, []>("op_1011_dilations_0"), val = tensor<int32, [2]>([1, 1])];
            tensor<int32, []> var_1011_groups_0 = const()[name = tensor<string, []>("op_1011_groups_0"), val = tensor<int32, []>(1)];
            tensor<fp16, [1280, 1280, 1, 1]> layers_4_self_attn_q_proj_outlier_module_weight_to_fp16_sparsified = constexpr_sparse_to_dense()[mask = tensor<uint8, [204800]>(BLOBFILE(path = tensor<string, []>("@model_path/weights/weight.bin"), offset = tensor<uint64, []>(69759808))), name = tensor<string, []>("layers_4_self_attn_q_proj_outlier_module_weight_to_fp16_sparsified"), nonzero_data = tensor<fp16, [24120]>(BLOBFILE(path = tensor<string, []>("@model_path/weights/weight.bin"), offset = tensor<uint64, []>(69711488))), shape = tensor<uint32, [4]>([1280, 1280, 1, 1])];
            tensor<fp16, [1, 1280, 1, 1500]> var_1011_cast_fp16 = conv(dilations = var_1011_dilations_0, groups = var_1011_groups_0, pad = var_1011_pad_0, pad_type = var_1011_pad_type_0, strides = var_1011_strides_0, weight = layers_4_self_attn_q_proj_outlier_module_weight_to_fp16_sparsified, x = obj_17_cast_fp16)[name = tensor<string, []>("op_1011_cast_fp16")];
            tensor<fp16, [1, 1280, 1, 1500]> query_9_cast_fp16 = add(x = var_1005_cast_fp16, y = var_1011_cast_fp16)[name = tensor<string, []>("query_9_cast_fp16")];
            tensor<string, []> var_1020_pad_type_0 = const()[name = tensor<string, []>("op_1020_pad_type_0"), val = tensor<string, []>("valid")];
            tensor<int32, [2]> var_1020_strides_0 = const()[name = tensor<string, []>("op_1020_strides_0"), val = tensor<int32, [2]>([1, 1])];
            tensor<int32, [4]> var_1020_pad_0 = const()[name = tensor<string, []>("op_1020_pad_0"), val = tensor<int32, [4]>([0, 0, 0, 0])];
            tensor<int32, [2]> var_1020_dilations_0 = const()[name = tensor<string, []>("op_1020_dilations_0"), val = tensor<int32, [2]>([1, 1])];
            tensor<int32, []> var_1020_groups_0 = const()[name = tensor<string, []>("op_1020_groups_0"), val = tensor<int32, []>(1)];
            tensor<fp16, [1280, 1280, 1, 1]> layers_4_self_attn_k_proj_inlier_module_weight_to_fp16_palettized = constexpr_lut_to_dense()[indices = tensor<uint8, [819200]>(BLOBFILE(path = tensor<string, []>("@model_path/weights/weight.bin"), offset = tensor<uint64, []>(69964672))), lut = tensor<fp16, [16]>(BLOBFILE(path = tensor<string, []>("@model_path/weights/weight.bin"), offset = tensor<uint64, []>(70783936))), name = tensor<string, []>("layers_4_self_attn_k_proj_inlier_module_weight_to_fp16_palettized"), shape = tensor<uint32, [4]>([1280, 1280, 1, 1])];
            tensor<fp16, [1, 1280, 1, 1500]> var_1020_cast_fp16 = conv(dilations = var_1020_dilations_0, groups = var_1020_groups_0, pad = var_1020_pad_0, pad_type = var_1020_pad_type_0, strides = var_1020_strides_0, weight = layers_4_self_attn_k_proj_inlier_module_weight_to_fp16_palettized, x = obj_17_cast_fp16)[name = tensor<string, []>("op_1020_cast_fp16")];
            tensor<string, []> var_1026_pad_type_0 = const()[name = tensor<string, []>("op_1026_pad_type_0"), val = tensor<string, []>("valid")];
            tensor<int32, [2]> var_1026_strides_0 = const()[name = tensor<string, []>("op_1026_strides_0"), val = tensor<int32, [2]>([1, 1])];
            tensor<int32, [4]> var_1026_pad_0 = const()[name = tensor<string, []>("op_1026_pad_0"), val = tensor<int32, [4]>([0, 0, 0, 0])];
            tensor<int32, [2]> var_1026_dilations_0 = const()[name = tensor<string, []>("op_1026_dilations_0"), val = tensor<int32, [2]>([1, 1])];
            tensor<int32, []> var_1026_groups_0 = const()[name = tensor<string, []>("op_1026_groups_0"), val = tensor<int32, []>(1)];
            tensor<fp16, [1280, 1280, 1, 1]> layers_4_self_attn_k_proj_outlier_module_weight_to_fp16_sparsified = constexpr_sparse_to_dense()[mask = tensor<uint8, [204800]>(BLOBFILE(path = tensor<string, []>("@model_path/weights/weight.bin"), offset = tensor<uint64, []>(70823680))), name = tensor<string, []>("layers_4_self_attn_k_proj_outlier_module_weight_to_fp16_sparsified"), nonzero_data = tensor<fp16, [19761]>(BLOBFILE(path = tensor<string, []>("@model_path/weights/weight.bin"), offset = tensor<uint64, []>(70784064))), shape = tensor<uint32, [4]>([1280, 1280, 1, 1])];
            tensor<fp16, [1, 1280, 1, 1500]> var_1026_cast_fp16 = conv(dilations = var_1026_dilations_0, groups = var_1026_groups_0, pad = var_1026_pad_0, pad_type = var_1026_pad_type_0, strides = var_1026_strides_0, weight = layers_4_self_attn_k_proj_outlier_module_weight_to_fp16_sparsified, x = obj_17_cast_fp16)[name = tensor<string, []>("op_1026_cast_fp16")];
            tensor<fp16, [1, 1280, 1, 1500]> key_9_cast_fp16 = add(x = var_1020_cast_fp16, y = var_1026_cast_fp16)[name = tensor<string, []>("key_9_cast_fp16")];
            tensor<string, []> var_1036_pad_type_0 = const()[name = tensor<string, []>("op_1036_pad_type_0"), val = tensor<string, []>("valid")];
            tensor<int32, [2]> var_1036_strides_0 = const()[name = tensor<string, []>("op_1036_strides_0"), val = tensor<int32, [2]>([1, 1])];
            tensor<int32, [4]> var_1036_pad_0 = const()[name = tensor<string, []>("op_1036_pad_0"), val = tensor<int32, [4]>([0, 0, 0, 0])];
            tensor<int32, [2]> var_1036_dilations_0 = const()[name = tensor<string, []>("op_1036_dilations_0"), val = tensor<int32, [2]>([1, 1])];
            tensor<int32, []> var_1036_groups_0 = const()[name = tensor<string, []>("op_1036_groups_0"), val = tensor<int32, []>(1)];
            tensor<fp16, [1280, 1280, 1, 1]> layers_4_self_attn_v_proj_inlier_module_weight_to_fp16_palettized = constexpr_lut_to_dense()[indices = tensor<uint8, [819200]>(BLOBFILE(path = tensor<string, []>("@model_path/weights/weight.bin"), offset = tensor<uint64, []>(71028544))), lut = tensor<fp16, [16]>(BLOBFILE(path = tensor<string, []>("@model_path/weights/weight.bin"), offset = tensor<uint64, []>(71847808))), name = tensor<string, []>("layers_4_self_attn_v_proj_inlier_module_weight_to_fp16_palettized"), shape = tensor<uint32, [4]>([1280, 1280, 1, 1])];
            tensor<fp16, [1280]> layers_4_self_attn_v_proj_inlier_module_bias_to_fp16 = const()[name = tensor<string, []>("layers_4_self_attn_v_proj_inlier_module_bias_to_fp16"), val = tensor<fp16, [1280]>(BLOBFILE(path = tensor<string, []>("@model_path/weights/weight.bin"), offset = tensor<uint64, []>(71847936)))];
            tensor<fp16, [1, 1280, 1, 1500]> var_1036_cast_fp16 = conv(bias = layers_4_self_attn_v_proj_inlier_module_bias_to_fp16, dilations = var_1036_dilations_0, groups = var_1036_groups_0, pad = var_1036_pad_0, pad_type = var_1036_pad_type_0, strides = var_1036_strides_0, weight = layers_4_self_attn_v_proj_inlier_module_weight_to_fp16_palettized, x = obj_17_cast_fp16)[name = tensor<string, []>("op_1036_cast_fp16")];
            tensor<string, []> var_1042_pad_type_0 = const()[name = tensor<string, []>("op_1042_pad_type_0"), val = tensor<string, []>("valid")];
            tensor<int32, [2]> var_1042_strides_0 = const()[name = tensor<string, []>("op_1042_strides_0"), val = tensor<int32, [2]>([1, 1])];
            tensor<int32, [4]> var_1042_pad_0 = const()[name = tensor<string, []>("op_1042_pad_0"), val = tensor<int32, [4]>([0, 0, 0, 0])];
            tensor<int32, [2]> var_1042_dilations_0 = const()[name = tensor<string, []>("op_1042_dilations_0"), val = tensor<int32, [2]>([1, 1])];
            tensor<int32, []> var_1042_groups_0 = const()[name = tensor<string, []>("op_1042_groups_0"), val = tensor<int32, []>(1)];
            tensor<fp16, [1280, 1280, 1, 1]> layers_4_self_attn_v_proj_outlier_module_weight_to_fp16_sparsified = constexpr_sparse_to_dense()[mask = tensor<uint8, [204800]>(BLOBFILE(path = tensor<string, []>("@model_path/weights/weight.bin"), offset = tensor<uint64, []>(71883776))), name = tensor<string, []>("layers_4_self_attn_v_proj_outlier_module_weight_to_fp16_sparsified"), nonzero_data = tensor<fp16, [16547]>(BLOBFILE(path = tensor<string, []>("@model_path/weights/weight.bin"), offset = tensor<uint64, []>(71850560))), shape = tensor<uint32, [4]>([1280, 1280, 1, 1])];
            tensor<fp16, [1, 1280, 1, 1500]> var_1042_cast_fp16 = conv(dilations = var_1042_dilations_0, groups = var_1042_groups_0, pad = var_1042_pad_0, pad_type = var_1042_pad_type_0, strides = var_1042_strides_0, weight = layers_4_self_attn_v_proj_outlier_module_weight_to_fp16_sparsified, x = obj_17_cast_fp16)[name = tensor<string, []>("op_1042_cast_fp16")];
            tensor<fp16, [1, 1280, 1, 1500]> value_9_cast_fp16 = add(x = var_1036_cast_fp16, y = var_1042_cast_fp16)[name = tensor<string, []>("value_9_cast_fp16")];
            tensor<int32, [4]> var_1045 = const()[name = tensor<string, []>("op_1045"), val = tensor<int32, [4]>([1, 20, 64, -1])];
            tensor<fp16, [1, 20, 64, 1500]> mh_q_9_cast_fp16 = reshape(shape = var_1045, x = query_9_cast_fp16)[name = tensor<string, []>("mh_q_9_cast_fp16")];
            tensor<fp16, []> var_1047_to_fp16 = const()[name = tensor<string, []>("op_1047_to_fp16"), val = tensor<fp16, []>(0x1p-3)];
            tensor<fp16, [1, 20, 64, 1500]> var_1048_cast_fp16 = mul(x = mh_q_9_cast_fp16, y = var_1047_to_fp16)[name = tensor<string, []>("op_1048_cast_fp16")];
            tensor<int32, [4]> var_1049 = const()[name = tensor<string, []>("op_1049"), val = tensor<int32, [4]>([1, 20, 64, -1])];
            tensor<fp16, [1, 20, 64, 1500]> var_1050_cast_fp16 = reshape(shape = var_1049, x = key_9_cast_fp16)[name = tensor<string, []>("op_1050_cast_fp16")];
            tensor<bool, []> mh_w_9_transpose_x_0 = const()[name = tensor<string, []>("mh_w_9_transpose_x_0"), val = tensor<bool, []>(true)];
            tensor<bool, []> mh_w_9_transpose_y_0 = const()[name = tensor<string, []>("mh_w_9_transpose_y_0"), val = tensor<bool, []>(false)];
            tensor<fp16, [1, 20, 1500, 1500]> mh_w_9_cast_fp16 = matmul(transpose_x = mh_w_9_transpose_x_0, transpose_y = mh_w_9_transpose_y_0, x = var_1048_cast_fp16, y = var_1050_cast_fp16)[name = tensor<string, []>("mh_w_9_cast_fp16")];
            tensor<fp16, [1, 20, 1500, 1500]> var_1053_cast_fp16 = softmax(axis = var_964, x = mh_w_9_cast_fp16)[name = tensor<string, []>("op_1053_cast_fp16")];
            tensor<int32, [4]> var_1054 = const()[name = tensor<string, []>("op_1054"), val = tensor<int32, [4]>([1, 20, 64, -1])];
            tensor<fp16, [1, 20, 64, 1500]> var_1055_cast_fp16 = reshape(shape = var_1054, x = value_9_cast_fp16)[name = tensor<string, []>("op_1055_cast_fp16")];
            tensor<bool, []> attn_9_transpose_x_0 = const()[name = tensor<string, []>("attn_9_transpose_x_0"), val = tensor<bool, []>(false)];
            tensor<bool, []> attn_9_transpose_y_0 = const()[name = tensor<string, []>("attn_9_transpose_y_0"), val = tensor<bool, []>(true)];
            tensor<fp16, [1, 20, 64, 1500]> attn_9_cast_fp16 = matmul(transpose_x = attn_9_transpose_x_0, transpose_y = attn_9_transpose_y_0, x = var_1055_cast_fp16, y = var_1053_cast_fp16)[name = tensor<string, []>("attn_9_cast_fp16")];
            tensor<int32, [4]> var_1058 = const()[name = tensor<string, []>("op_1058"), val = tensor<int32, [4]>([1, 1280, 1, -1])];
            tensor<fp16, [1, 1280, 1, 1500]> input_33_cast_fp16 = reshape(shape = var_1058, x = attn_9_cast_fp16)[name = tensor<string, []>("input_33_cast_fp16")];
            tensor<string, []> var_1068_pad_type_0 = const()[name = tensor<string, []>("op_1068_pad_type_0"), val = tensor<string, []>("valid")];
            tensor<int32, [2]> var_1068_strides_0 = const()[name = tensor<string, []>("op_1068_strides_0"), val = tensor<int32, [2]>([1, 1])];
            tensor<int32, [4]> var_1068_pad_0 = const()[name = tensor<string, []>("op_1068_pad_0"), val = tensor<int32, [4]>([0, 0, 0, 0])];
            tensor<int32, [2]> var_1068_dilations_0 = const()[name = tensor<string, []>("op_1068_dilations_0"), val = tensor<int32, [2]>([1, 1])];
            tensor<int32, []> var_1068_groups_0 = const()[name = tensor<string, []>("op_1068_groups_0"), val = tensor<int32, []>(1)];
            tensor<fp16, [1280, 1280, 1, 1]> layers_4_self_attn_o_proj_inlier_module_weight_to_fp16_palettized = constexpr_lut_to_dense()[indices = tensor<uint8, [819200]>(BLOBFILE(path = tensor<string, []>("@model_path/weights/weight.bin"), offset = tensor<uint64, []>(72088640))), lut = tensor<fp16, [16]>(BLOBFILE(path = tensor<string, []>("@model_path/weights/weight.bin"), offset = tensor<uint64, []>(72907904))), name = tensor<string, []>("layers_4_self_attn_o_proj_inlier_module_weight_to_fp16_palettized"), shape = tensor<uint32, [4]>([1280, 1280, 1, 1])];
            tensor<fp16, [1280]> layers_4_self_attn_o_proj_inlier_module_bias_to_fp16 = const()[name = tensor<string, []>("layers_4_self_attn_o_proj_inlier_module_bias_to_fp16"), val = tensor<fp16, [1280]>(BLOBFILE(path = tensor<string, []>("@model_path/weights/weight.bin"), offset = tensor<uint64, []>(72908032)))];
            tensor<fp16, [1, 1280, 1, 1500]> var_1068_cast_fp16 = conv(bias = layers_4_self_attn_o_proj_inlier_module_bias_to_fp16, dilations = var_1068_dilations_0, groups = var_1068_groups_0, pad = var_1068_pad_0, pad_type = var_1068_pad_type_0, strides = var_1068_strides_0, weight = layers_4_self_attn_o_proj_inlier_module_weight_to_fp16_palettized, x = input_33_cast_fp16)[name = tensor<string, []>("op_1068_cast_fp16")];
            tensor<string, []> var_1074_pad_type_0 = const()[name = tensor<string, []>("op_1074_pad_type_0"), val = tensor<string, []>("valid")];
            tensor<int32, [2]> var_1074_strides_0 = const()[name = tensor<string, []>("op_1074_strides_0"), val = tensor<int32, [2]>([1, 1])];
            tensor<int32, [4]> var_1074_pad_0 = const()[name = tensor<string, []>("op_1074_pad_0"), val = tensor<int32, [4]>([0, 0, 0, 0])];
            tensor<int32, [2]> var_1074_dilations_0 = const()[name = tensor<string, []>("op_1074_dilations_0"), val = tensor<int32, [2]>([1, 1])];
            tensor<int32, []> var_1074_groups_0 = const()[name = tensor<string, []>("op_1074_groups_0"), val = tensor<int32, []>(1)];
            tensor<fp16, [1280, 1280, 1, 1]> layers_4_self_attn_o_proj_outlier_module_weight_to_fp16_sparsified = constexpr_sparse_to_dense()[mask = tensor<uint8, [204800]>(BLOBFILE(path = tensor<string, []>("@model_path/weights/weight.bin"), offset = tensor<uint64, []>(72933952))), name = tensor<string, []>("layers_4_self_attn_o_proj_outlier_module_weight_to_fp16_sparsified"), nonzero_data = tensor<fp16, [11593]>(BLOBFILE(path = tensor<string, []>("@model_path/weights/weight.bin"), offset = tensor<uint64, []>(72910656))), shape = tensor<uint32, [4]>([1280, 1280, 1, 1])];
            tensor<fp16, [1, 1280, 1, 1500]> var_1074_cast_fp16 = conv(dilations = var_1074_dilations_0, groups = var_1074_groups_0, pad = var_1074_pad_0, pad_type = var_1074_pad_type_0, strides = var_1074_strides_0, weight = layers_4_self_attn_o_proj_outlier_module_weight_to_fp16_sparsified, x = input_33_cast_fp16)[name = tensor<string, []>("op_1074_cast_fp16")];
            tensor<fp16, [1, 1280, 1, 1500]> obj_19_cast_fp16 = add(x = var_1068_cast_fp16, y = var_1074_cast_fp16)[name = tensor<string, []>("obj_19_cast_fp16")];
            tensor<fp16, [1, 1280, 1, 1500]> inputs_19_cast_fp16 = add(x = inputs_17_cast_fp16, y = obj_19_cast_fp16)[name = tensor<string, []>("inputs_19_cast_fp16")];
            tensor<int32, [1]> out_19_axes_0 = const()[name = tensor<string, []>("out_19_axes_0"), val = tensor<int32, [1]>([1])];
            tensor<fp16, []> var_1085_to_fp16 = const()[name = tensor<string, []>("op_1085_to_fp16"), val = tensor<fp16, []>(0x1.5p-17)];
            tensor<fp16, [1, 1280, 1, 1500]> out_19_cast_fp16 = layer_norm(axes = out_19_axes_0, epsilon = var_1085_to_fp16, x = inputs_19_cast_fp16)[name = tensor<string, []>("out_19_cast_fp16")];
            tensor<fp16, [1280]> input_35_gamma_0_to_fp16 = const()[name = tensor<string, []>("input_35_gamma_0_to_fp16"), val = tensor<fp16, [1280]>(BLOBFILE(path = tensor<string, []>("@model_path/weights/weight.bin"), offset = tensor<uint64, []>(73138816)))];
            tensor<fp16, [1280]> input_35_beta_0_to_fp16 = const()[name = tensor<string, []>("input_35_beta_0_to_fp16"), val = tensor<fp16, [1280]>(BLOBFILE(path = tensor<string, []>("@model_path/weights/weight.bin"), offset = tensor<uint64, []>(73141440)))];
            tensor<fp16, []> input_35_epsilon_0_to_fp16 = const()[name = tensor<string, []>("input_35_epsilon_0_to_fp16"), val = tensor<fp16, []>(0x1.5p-17)];
            tensor<fp16, [1, 1280, 1, 1500]> input_35_cast_fp16 = batch_norm(beta = input_35_beta_0_to_fp16, epsilon = input_35_epsilon_0_to_fp16, gamma = input_35_gamma_0_to_fp16, mean = var_97_to_fp16, variance = obj_1_variance_0_to_fp16, x = out_19_cast_fp16)[name = tensor<string, []>("input_35_cast_fp16")];
            tensor<string, []> var_1103_pad_type_0 = const()[name = tensor<string, []>("op_1103_pad_type_0"), val = tensor<string, []>("valid")];
            tensor<int32, [2]> var_1103_strides_0 = const()[name = tensor<string, []>("op_1103_strides_0"), val = tensor<int32, [2]>([1, 1])];
            tensor<int32, [4]> var_1103_pad_0 = const()[name = tensor<string, []>("op_1103_pad_0"), val = tensor<int32, [4]>([0, 0, 0, 0])];
            tensor<int32, [2]> var_1103_dilations_0 = const()[name = tensor<string, []>("op_1103_dilations_0"), val = tensor<int32, [2]>([1, 1])];
            tensor<int32, []> var_1103_groups_0 = const()[name = tensor<string, []>("op_1103_groups_0"), val = tensor<int32, []>(1)];
            tensor<fp16, [5120, 1280, 1, 1]> layers_4_fc1_inlier_module_weight_to_fp16_palettized = constexpr_lut_to_dense()[indices = tensor<uint8, [3276800]>(BLOBFILE(path = tensor<string, []>("@model_path/weights/weight.bin"), offset = tensor<uint64, []>(73144064))), lut = tensor<fp16, [16]>(BLOBFILE(path = tensor<string, []>("@model_path/weights/weight.bin"), offset = tensor<uint64, []>(76420928))), name = tensor<string, []>("layers_4_fc1_inlier_module_weight_to_fp16_palettized"), shape = tensor<uint32, [4]>([5120, 1280, 1, 1])];
            tensor<fp16, [5120]> layers_4_fc1_inlier_module_bias_to_fp16 = const()[name = tensor<string, []>("layers_4_fc1_inlier_module_bias_to_fp16"), val = tensor<fp16, [5120]>(BLOBFILE(path = tensor<string, []>("@model_path/weights/weight.bin"), offset = tensor<uint64, []>(76421056)))];
            tensor<fp16, [1, 5120, 1, 1500]> var_1103_cast_fp16 = conv(bias = layers_4_fc1_inlier_module_bias_to_fp16, dilations = var_1103_dilations_0, groups = var_1103_groups_0, pad = var_1103_pad_0, pad_type = var_1103_pad_type_0, strides = var_1103_strides_0, weight = layers_4_fc1_inlier_module_weight_to_fp16_palettized, x = input_35_cast_fp16)[name = tensor<string, []>("op_1103_cast_fp16")];
            tensor<string, []> var_1109_pad_type_0 = const()[name = tensor<string, []>("op_1109_pad_type_0"), val = tensor<string, []>("valid")];
            tensor<int32, [2]> var_1109_strides_0 = const()[name = tensor<string, []>("op_1109_strides_0"), val = tensor<int32, [2]>([1, 1])];
            tensor<int32, [4]> var_1109_pad_0 = const()[name = tensor<string, []>("op_1109_pad_0"), val = tensor<int32, [4]>([0, 0, 0, 0])];
            tensor<int32, [2]> var_1109_dilations_0 = const()[name = tensor<string, []>("op_1109_dilations_0"), val = tensor<int32, [2]>([1, 1])];
            tensor<int32, []> var_1109_groups_0 = const()[name = tensor<string, []>("op_1109_groups_0"), val = tensor<int32, []>(1)];
            tensor<fp16, [5120, 1280, 1, 1]> layers_4_fc1_outlier_module_weight_to_fp16_sparsified = constexpr_sparse_to_dense()[mask = tensor<uint8, [819200]>(BLOBFILE(path = tensor<string, []>("@model_path/weights/weight.bin"), offset = tensor<uint64, []>(76440192))), name = tensor<string, []>("layers_4_fc1_outlier_module_weight_to_fp16_sparsified"), nonzero_data = tensor<fp16, [4361]>(BLOBFILE(path = tensor<string, []>("@model_path/weights/weight.bin"), offset = tensor<uint64, []>(76431360))), shape = tensor<uint32, [4]>([5120, 1280, 1, 1])];
            tensor<fp16, [1, 5120, 1, 1500]> var_1109_cast_fp16 = conv(dilations = var_1109_dilations_0, groups = var_1109_groups_0, pad = var_1109_pad_0, pad_type = var_1109_pad_type_0, strides = var_1109_strides_0, weight = layers_4_fc1_outlier_module_weight_to_fp16_sparsified, x = input_35_cast_fp16)[name = tensor<string, []>("op_1109_cast_fp16")];
            tensor<fp16, [1, 5120, 1, 1500]> input_37_cast_fp16 = add(x = var_1103_cast_fp16, y = var_1109_cast_fp16)[name = tensor<string, []>("input_37_cast_fp16")];
            tensor<string, []> input_39_mode_0 = const()[name = tensor<string, []>("input_39_mode_0"), val = tensor<string, []>("EXACT")];
            tensor<fp16, [1, 5120, 1, 1500]> input_39_cast_fp16 = gelu(mode = input_39_mode_0, x = input_37_cast_fp16)[name = tensor<string, []>("input_39_cast_fp16")];
            tensor<string, []> var_1120_pad_type_0 = const()[name = tensor<string, []>("op_1120_pad_type_0"), val = tensor<string, []>("valid")];
            tensor<int32, [2]> var_1120_strides_0 = const()[name = tensor<string, []>("op_1120_strides_0"), val = tensor<int32, [2]>([1, 1])];
            tensor<int32, [4]> var_1120_pad_0 = const()[name = tensor<string, []>("op_1120_pad_0"), val = tensor<int32, [4]>([0, 0, 0, 0])];
            tensor<int32, [2]> var_1120_dilations_0 = const()[name = tensor<string, []>("op_1120_dilations_0"), val = tensor<int32, [2]>([1, 1])];
            tensor<int32, []> var_1120_groups_0 = const()[name = tensor<string, []>("op_1120_groups_0"), val = tensor<int32, []>(1)];
            tensor<fp16, [1280, 5120, 1, 1]> layers_4_fc2_inlier_module_weight_to_fp16_palettized = constexpr_lut_to_dense()[indices = tensor<uint8, [3276800]>(BLOBFILE(path = tensor<string, []>("@model_path/weights/weight.bin"), offset = tensor<uint64, []>(77259456))), lut = tensor<fp16, [16]>(BLOBFILE(path = tensor<string, []>("@model_path/weights/weight.bin"), offset = tensor<uint64, []>(80536320))), name = tensor<string, []>("layers_4_fc2_inlier_module_weight_to_fp16_palettized"), shape = tensor<uint32, [4]>([1280, 5120, 1, 1])];
            tensor<fp16, [1280]> layers_4_fc2_inlier_module_bias_to_fp16 = const()[name = tensor<string, []>("layers_4_fc2_inlier_module_bias_to_fp16"), val = tensor<fp16, [1280]>(BLOBFILE(path = tensor<string, []>("@model_path/weights/weight.bin"), offset = tensor<uint64, []>(80536448)))];
            tensor<fp16, [1, 1280, 1, 1500]> var_1120_cast_fp16 = conv(bias = layers_4_fc2_inlier_module_bias_to_fp16, dilations = var_1120_dilations_0, groups = var_1120_groups_0, pad = var_1120_pad_0, pad_type = var_1120_pad_type_0, strides = var_1120_strides_0, weight = layers_4_fc2_inlier_module_weight_to_fp16_palettized, x = input_39_cast_fp16)[name = tensor<string, []>("op_1120_cast_fp16")];
            tensor<string, []> var_1126_pad_type_0 = const()[name = tensor<string, []>("op_1126_pad_type_0"), val = tensor<string, []>("valid")];
            tensor<int32, [2]> var_1126_strides_0 = const()[name = tensor<string, []>("op_1126_strides_0"), val = tensor<int32, [2]>([1, 1])];
            tensor<int32, [4]> var_1126_pad_0 = const()[name = tensor<string, []>("op_1126_pad_0"), val = tensor<int32, [4]>([0, 0, 0, 0])];
            tensor<int32, [2]> var_1126_dilations_0 = const()[name = tensor<string, []>("op_1126_dilations_0"), val = tensor<int32, [2]>([1, 1])];
            tensor<int32, []> var_1126_groups_0 = const()[name = tensor<string, []>("op_1126_groups_0"), val = tensor<int32, []>(1)];
…
            tensor<int32, []> var_5508_groups_0 = const()[name = tensor<string, []>("op_5508_groups_0"), val = tensor<int32, []>(1)];
            tensor<fp16, [1280, 1280, 1, 1]> layers_30_self_attn_v_proj_inlier_module_weight_to_fp16_palettized = constexpr_lut_to_dense()[indices = tensor<uint8, [819200]>(BLOBFILE(path = tensor<string, []>("@model_path/weights/weight.bin"), offset = tensor<uint64, []>(399035264))), lut = tensor<fp16, [16]>(BLOBFILE(path = tensor<string, []>("@model_path/weights/weight.bin"), offset = tensor<uint64, []>(399854528))), name = tensor<string, []>("layers_30_self_attn_v_proj_inlier_module_weight_to_fp16_palettized"), shape = tensor<uint32, [4]>([1280, 1280, 1, 1])];
            tensor<fp16, [1280]> layers_30_self_attn_v_proj_inlier_module_bias_to_fp16 = const()[name = tensor<string, []>("layers_30_self_attn_v_proj_inlier_module_bias_to_fp16"), val = tensor<fp16, [1280]>(BLOBFILE(path = tensor<string, []>("@model_path/weights/weight.bin"), offset = tensor<uint64, []>(399854656)))];
            tensor<fp16, [1, 1280, 1, 1500]> var_5508_cast_fp16 = conv(bias = layers_30_self_attn_v_proj_inlier_module_bias_to_fp16, dilations = var_5508_dilations_0, groups = var_5508_groups_0, pad = var_5508_pad_0, pad_type = var_5508_pad_type_0, strides = var_5508_strides_0, weight = layers_30_self_attn_v_proj_inlier_module_weight_to_fp16_palettized, x = obj_121_cast_fp16)[name = tensor<string, []>("op_5508_cast_fp16")];
            tensor<string, []> var_5514_pad_type_0 = const()[name = tensor<string, []>("op_5514_pad_type_0"), val = tensor<string, []>("valid")];
            tensor<int32, [2]> var_5514_strides_0 = const()[name = tensor<string, []>("op_5514_strides_0"), val = tensor<int32, [2]>([1, 1])];
            tensor<int32, [4]> var_5514_pad_0 = const()[name = tensor<string, []>("op_5514_pad_0"), val = tensor<int32, [4]>([0, 0, 0, 0])];
            tensor<int32, [2]> var_5514_dilations_0 = const()[name = tensor<string, []>("op_5514_dilations_0"), val = tensor<int32, [2]>([1, 1])];
            tensor<int32, []> var_5514_groups_0 = const()[name = tensor<string, []>("op_5514_groups_0"), val = tensor<int32, []>(1)];
            tensor<fp16, [1280, 1280, 1, 1]> layers_30_self_attn_v_proj_outlier_module_weight_to_fp16_sparsified = constexpr_sparse_to_dense()[mask = tensor<uint8, [204800]>(BLOBFILE(path = tensor<string, []>("@model_path/weights/weight.bin"), offset = tensor<uint64, []>(399869696))), name = tensor<string, []>("layers_30_self_attn_v_proj_outlier_module_weight_to_fp16_sparsified"), nonzero_data = tensor<fp16, [6176]>(BLOBFILE(path = tensor<string, []>("@model_path/weights/weight.bin"), offset = tensor<uint64, []>(399857280))), shape = tensor<uint32, [4]>([1280, 1280, 1, 1])];
            tensor<fp16, [1, 1280, 1, 1500]> var_5514_cast_fp16 = conv(dilations = var_5514_dilations_0, groups = var_5514_groups_0, pad = var_5514_pad_0, pad_type = var_5514_pad_type_0, strides = var_5514_strides_0, weight = layers_30_self_attn_v_proj_outlier_module_weight_to_fp16_sparsified, x = obj_121_cast_fp16)[name = tensor<string, []>("op_5514_cast_fp16")];
            tensor<fp16, [1, 1280, 1, 1500]> value_61_cast_fp16 = add(x = var_5508_cast_fp16, y = var_5514_cast_fp16)[name = tensor<string, []>("value_61_cast_fp16")];
            tensor<int32, [4]> var_5517 = const()[name = tensor<string, []>("op_5517"), val = tensor<int32, [4]>([1, 20, 64, -1])];
            tensor<fp16, [1, 20, 64, 1500]> mh_q_61_cast_fp16 = reshape(shape = var_5517, x = query_61_cast_fp16)[name = tensor<string, []>("mh_q_61_cast_fp16")];
            tensor<fp16, []> var_5519_to_fp16 = const()[name = tensor<string, []>("op_5519_to_fp16"), val = tensor<fp16, []>(0x1p-3)];
            tensor<fp16, [1, 20, 64, 1500]> var_5520_cast_fp16 = mul(x = mh_q_61_cast_fp16, y = var_5519_to_fp16)[name = tensor<string, []>("op_5520_cast_fp16")];
            tensor<int32, [4]> var_5521 = const()[name = tensor<string, []>("op_5521"), val = tensor<int32, [4]>([1, 20, 64, -1])];
            tensor<fp16, [1, 20, 64, 1500]> var_5522_cast_fp16 = reshape(shape = var_5521, x = key_61_cast_fp16)[name = tensor<string, []>("op_5522_cast_fp16")];
            tensor<bool, []> mh_w_61_transpose_x_0 = const()[name = tensor<string, []>("mh_w_61_transpose_x_0"), val = tensor<bool, []>(true)];
            tensor<bool, []> mh_w_61_transpose_y_0 = const()[name = tensor<string, []>("mh_w_61_transpose_y_0"), val = tensor<bool, []>(false)];
            tensor<fp16, [1, 20, 1500, 1500]> mh_w_61_cast_fp16 = matmul(transpose_x = mh_w_61_transpose_x_0, transpose_y = mh_w_61_transpose_y_0, x = var_5520_cast_fp16, y = var_5522_cast_fp16)[name = tensor<string, []>("mh_w_61_cast_fp16")];
            tensor<fp16, [1, 20, 1500, 1500]> var_5525_cast_fp16 = softmax(axis = var_5436, x = mh_w_61_cast_fp16)[name = tensor<string, []>("op_5525_cast_fp16")];
            tensor<int32, [4]> var_5526 = const()[name = tensor<string, []>("op_5526"), val = tensor<int32, [4]>([1, 20, 64, -1])];
            tensor<fp16, [1, 20, 64, 1500]> var_5527_cast_fp16 = reshape(shape = var_5526, x = value_61_cast_fp16)[name = tensor<string, []>("op_5527_cast_fp16")];
            tensor<bool, []> attn_61_transpose_x_0 = const()[name = tensor<string, []>("attn_61_transpose_x_0"), val = tensor<bool, []>(false)];
            tensor<bool, []> attn_61_transpose_y_0 = const()[name = tensor<string, []>("attn_61_transpose_y_0"), val = tensor<bool, []>(true)];
            tensor<fp16, [1, 20, 64, 1500]> attn_61_cast_fp16 = matmul(transpose_x = attn_61_transpose_x_0, transpose_y = attn_61_transpose_y_0, x = var_5527_cast_fp16, y = var_5525_cast_fp16)[name = tensor<string, []>("attn_61_cast_fp16")];
            tensor<int32, [4]> var_5530 = const()[name = tensor<string, []>("op_5530"), val = tensor<int32, [4]>([1, 1280, 1, -1])];
            tensor<fp16, [1, 1280, 1, 1500]> input_241_cast_fp16 = reshape(shape = var_5530, x = attn_61_cast_fp16)[name = tensor<string, []>("input_241_cast_fp16")];
            tensor<string, []> var_5540_pad_type_0 = const()[name = tensor<string, []>("op_5540_pad_type_0"), val = tensor<string, []>("valid")];
            tensor<int32, [2]> var_5540_strides_0 = const()[name = tensor<string, []>("op_5540_strides_0"), val = tensor<int32, [2]>([1, 1])];
            tensor<int32, [4]> var_5540_pad_0 = const()[name = tensor<string, []>("op_5540_pad_0"), val = tensor<int32, [4]>([0, 0, 0, 0])];
            tensor<int32, [2]> var_5540_dilations_0 = const()[name = tensor<string, []>("op_5540_dilations_0"), val = tensor<int32, [2]>([1, 1])];
            tensor<int32, []> var_5540_groups_0 = const()[name = tensor<string, []>("op_5540_groups_0"), val = tensor<int32, []>(1)];
            tensor<fp16, [1280, 1280, 1, 1]> layers_30_self_attn_o_proj_inlier_module_weight_to_fp16_palettized = constexpr_lut_to_dense()[indices = tensor<uint8, [819200]>(BLOBFILE(path = tensor<string, []>("@model_path/weights/weight.bin"), offset = tensor<uint64, []>(400074560))), lut = tensor<fp16, [16]>(BLOBFILE(path = tensor<string, []>("@model_path/weights/weight.bin"), offset = tensor<uint64, []>(400893824))), name = tensor<string, []>("layers_30_self_attn_o_proj_inlier_module_weight_to_fp16_palettized"), shape = tensor<uint32, [4]>([1280, 1280, 1, 1])];
            tensor<fp16, [1280]> layers_30_self_attn_o_proj_inlier_module_bias_to_fp16 = const()[name = tensor<string, []>("layers_30_self_attn_o_proj_inlier_module_bias_to_fp16"), val = tensor<fp16, [1280]>(BLOBFILE(path = tensor<string, []>("@model_path/weights/weight.bin"), offset = tensor<uint64, []>(400893952)))];
            tensor<fp16, [1, 1280, 1, 1500]> var_5540_cast_fp16 = conv(bias = layers_30_self_attn_o_proj_inlier_module_bias_to_fp16, dilations = var_5540_dilations_0, groups = var_5540_groups_0, pad = var_5540_pad_0, pad_type = var_5540_pad_type_0, strides = var_5540_strides_0, weight = layers_30_self_attn_o_proj_inlier_module_weight_to_fp16_palettized, x = input_241_cast_fp16)[name = tensor<string, []>("op_5540_cast_fp16")];
            tensor<string, []> var_5546_pad_type_0 = const()[name = tensor<string, []>("op_5546_pad_type_0"), val = tensor<string, []>("valid")];
            tensor<int32, [2]> var_5546_strides_0 = const()[name = tensor<string, []>("op_5546_strides_0"), val = tensor<int32, [2]>([1, 1])];
            tensor<int32, [4]> var_5546_pad_0 = const()[name = tensor<string, []>("op_5546_pad_0"), val = tensor<int32, [4]>([0, 0, 0, 0])];
            tensor<int32, [2]> var_5546_dilations_0 = const()[name = tensor<string, []>("op_5546_dilations_0"), val = tensor<int32, [2]>([1, 1])];
            tensor<int32, []> var_5546_groups_0 = const()[name = tensor<string, []>("op_5546_groups_0"), val = tensor<int32, []>(1)];
            tensor<fp16, [1280, 1280, 1, 1]> layers_30_self_attn_o_proj_outlier_module_weight_to_fp16_sparsified = constexpr_sparse_to_dense()[mask = tensor<uint8, [204800]>(BLOBFILE(path = tensor<string, []>("@model_path/weights/weight.bin"), offset = tensor<uint64, []>(400908032))), name = tensor<string, []>("layers_30_self_attn_o_proj_outlier_module_weight_to_fp16_sparsified"), nonzero_data = tensor<fp16, [5673]>(BLOBFILE(path = tensor<string, []>("@model_path/weights/weight.bin"), offset = tensor<uint64, []>(400896576))), shape = tensor<uint32, [4]>([1280, 1280, 1, 1])];
            tensor<fp16, [1, 1280, 1, 1500]> var_5546_cast_fp16 = conv(dilations = var_5546_dilations_0, groups = var_5546_groups_0, pad = var_5546_pad_0, pad_type = var_5546_pad_type_0, strides = var_5546_strides_0, weight = layers_30_self_attn_o_proj_outlier_module_weight_to_fp16_sparsified, x = input_241_cast_fp16)[name = tensor<string, []>("op_5546_cast_fp16")];
            tensor<fp16, [1, 1280, 1, 1500]> obj_123_cast_fp16 = add(x = var_5540_cast_fp16, y = var_5546_cast_fp16)[name = tensor<string, []>("obj_123_cast_fp16")];
            tensor<fp16, [1, 1280, 1, 1500]> inputs_123_cast_fp16 = add(x = inputs_121_cast_fp16, y = obj_123_cast_fp16)[name = tensor<string, []>("inputs_123_cast_fp16")];
            tensor<int32, [1]> out_123_axes_0 = const()[name = tensor<string, []>("out_123_axes_0"), val = tensor<int32, [1]>([1])];
            tensor<fp16, []> var_5557_to_fp16 = const()[name = tensor<string, []>("op_5557_to_fp16"), val = tensor<fp16, []>(0x1.5p-17)];
            tensor<fp16, [1, 1280, 1, 1500]> out_123_cast_fp16 = layer_norm(axes = out_123_axes_0, epsilon = var_5557_to_fp16, x = inputs_123_cast_fp16)[name = tensor<string, []>("out_123_cast_fp16")];
            tensor<fp16, [1280]> input_243_gamma_0_to_fp16 = const()[name = tensor<string, []>("input_243_gamma_0_to_fp16"), val = tensor<fp16, [1280]>(BLOBFILE(path = tensor<string, []>("@model_path/weights/weight.bin"), offset = tensor<uint64, []>(401112896)))];
            tensor<fp16, [1280]> input_243_beta_0_to_fp16 = const()[name = tensor<string, []>("input_243_beta_0_to_fp16"), val = tensor<fp16, [1280]>(BLOBFILE(path = tensor<string, []>("@model_path/weights/weight.bin"), offset = tensor<uint64, []>(401115520)))];
            tensor<fp16, []> input_243_epsilon_0_to_fp16 = const()[name = tensor<string, []>("input_243_epsilon_0_to_fp16"), val = tensor<fp16, []>(0x1.5p-17)];
            tensor<fp16, [1, 1280, 1, 1500]> input_243_cast_fp16 = batch_norm(beta = input_243_beta_0_to_fp16, epsilon = input_243_epsilon_0_to_fp16, gamma = input_243_gamma_0_to_fp16, mean = var_97_to_fp16, variance = obj_1_variance_0_to_fp16, x = out_123_cast_fp16)[name = tensor<string, []>("input_243_cast_fp16")];
            tensor<string, []> var_5575_pad_type_0 = const()[name = tensor<string, []>("op_5575_pad_type_0"), val = tensor<string, []>("valid")];
            tensor<int32, [2]> var_5575_strides_0 = const()[name = tensor<string, []>("op_5575_strides_0"), val = tensor<int32, [2]>([1, 1])];
            tensor<int32, [4]> var_5575_pad_0 = const()[name = tensor<string, []>("op_5575_pad_0"), val = tensor<int32, [4]>([0, 0, 0, 0])];
            tensor<int32, [2]> var_5575_dilations_0 = const()[name = tensor<string, []>("op_5575_dilations_0"), val = tensor<int32, [2]>([1, 1])];
            tensor<int32, []> var_5575_groups_0 = const()[name = tensor<string, []>("op_5575_groups_0"), val = tensor<int32, []>(1)];
            tensor<fp16, [5120, 1280, 1, 1]> layers_30_fc1_inlier_module_weight_to_fp16_palettized = constexpr_lut_to_dense()[indices = tensor<uint8, [3276800]>(BLOBFILE(path = tensor<string, []>("@model_path/weights/weight.bin"), offset = tensor<uint64, []>(401118144))), lut = tensor<fp16, [16]>(BLOBFILE(path = tensor<string, []>("@model_path/weights/weight.bin"), offset = tensor<uint64, []>(404395008))), name = tensor<string, []>("layers_30_fc1_inlier_module_weight_to_fp16_palettized"), shape = tensor<uint32, [4]>([5120, 1280, 1, 1])];
            tensor<fp16, [5120]> layers_30_fc1_inlier_module_bias_to_fp16 = const()[name = tensor<string, []>("layers_30_fc1_inlier_module_bias_to_fp16"), val = tensor<fp16, [5120]>(BLOBFILE(path = tensor<string, []>("@model_path/weights/weight.bin"), offset = tensor<uint64, []>(404395136)))];
            tensor<fp16, [1, 5120, 1, 1500]> var_5575_cast_fp16 = conv(bias = layers_30_fc1_inlier_module_bias_to_fp16, dilations = var_5575_dilations_0, groups = var_5575_groups_0, pad = var_5575_pad_0, pad_type = var_5575_pad_type_0, strides = var_5575_strides_0, weight = layers_30_fc1_inlier_module_weight_to_fp16_palettized, x = input_243_cast_fp16)[name = tensor<string, []>("op_5575_cast_fp16")];
            tensor<string, []> var_5581_pad_type_0 = const()[name = tensor<string, []>("op_5581_pad_type_0"), val = tensor<string, []>("valid")];
            tensor<int32, [2]> var_5581_strides_0 = const()[name = tensor<string, []>("op_5581_strides_0"), val = tensor<int32, [2]>([1, 1])];
            tensor<int32, [4]> var_5581_pad_0 = const()[name = tensor<string, []>("op_5581_pad_0"), val = tensor<int32, [4]>([0, 0, 0, 0])];
            tensor<int32, [2]> var_5581_dilations_0 = const()[name = tensor<string, []>("op_5581_dilations_0"), val = tensor<int32, [2]>([1, 1])];
            tensor<int32, []> var_5581_groups_0 = const()[name = tensor<string, []>("op_5581_groups_0"), val = tensor<int32, []>(1)];
            tensor<fp16, [5120, 1280, 1, 1]> layers_30_fc1_outlier_module_weight_to_fp16_sparsified = constexpr_sparse_to_dense()[mask = tensor<uint8, [819200]>(BLOBFILE(path = tensor<string, []>("@model_path/weights/weight.bin"), offset = tensor<uint64, []>(404464960))), name = tensor<string, []>("layers_30_fc1_outlier_module_weight_to_fp16_sparsified"), nonzero_data = tensor<fp16, [29723]>(BLOBFILE(path = tensor<string, []>("@model_path/weights/weight.bin"), offset = tensor<uint64, []>(404405440))), shape = tensor<uint32, [4]>([5120, 1280, 1, 1])];
            tensor<fp16, [1, 5120, 1, 1500]> var_5581_cast_fp16 = conv(dilations = var_5581_dilations_0, groups = var_5581_groups_0, pad = var_5581_pad_0, pad_type = var_5581_pad_type_0, strides = var_5581_strides_0, weight = layers_30_fc1_outlier_module_weight_to_fp16_sparsified, x = input_243_cast_fp16)[name = tensor<string, []>("op_5581_cast_fp16")];
            tensor<fp16, [1, 5120, 1, 1500]> input_245_cast_fp16 = add(x = var_5575_cast_fp16, y = var_5581_cast_fp16)[name = tensor<string, []>("input_245_cast_fp16")];
            tensor<string, []> input_247_mode_0 = const()[name = tensor<string, []>("input_247_mode_0"), val = tensor<string, []>("EXACT")];
            tensor<fp16, [1, 5120, 1, 1500]> input_247_cast_fp16 = gelu(mode = input_247_mode_0, x = input_245_cast_fp16)[name = tensor<string, []>("input_247_cast_fp16")];
            tensor<string, []> var_5592_pad_type_0 = const()[name = tensor<string, []>("op_5592_pad_type_0"), val = tensor<string, []>("valid")];
            tensor<int32, [2]> var_5592_strides_0 = const()[name = tensor<string, []>("op_5592_strides_0"), val = tensor<int32, [2]>([1, 1])];
            tensor<int32, [4]> var_5592_pad_0 = const()[name = tensor<string, []>("op_5592_pad_0"), val = tensor<int32, [4]>([0, 0, 0, 0])];
            tensor<int32, [2]> var_5592_dilations_0 = const()[name = tensor<string, []>("op_5592_dilations_0"), val = tensor<int32, [2]>([1, 1])];
            tensor<int32, []> var_5592_groups_0 = const()[name = tensor<string, []>("op_5592_groups_0"), val = tensor<int32, []>(1)];
            tensor<fp16, [1280, 5120, 1, 1]> layers_30_fc2_inlier_module_weight_to_fp16_palettized = constexpr_lut_to_dense()[indices = tensor<uint8, [3276800]>(BLOBFILE(path = tensor<string, []>("@model_path/weights/weight.bin"), offset = tensor<uint64, []>(405284224))), lut = tensor<fp16, [16]>(BLOBFILE(path = tensor<string, []>("@model_path/weights/weight.bin"), offset = tensor<uint64, []>(408561088))), name = tensor<string, []>("layers_30_fc2_inlier_module_weight_to_fp16_palettized"), shape = tensor<uint32, [4]>([1280, 5120, 1, 1])];
            tensor<fp16, [1280]> layers_30_fc2_inlier_module_bias_to_fp16 = const()[name = tensor<string, []>("layers_30_fc2_inlier_module_bias_to_fp16"), val = tensor<fp16, [1280]>(BLOBFILE(path = tensor<string, []>("@model_path/weights/weight.bin"), offset = tensor<uint64, []>(408561216)))];
            tensor<fp16, [1, 1280, 1, 1500]> var_5592_cast_fp16 = conv(bias = layers_30_fc2_inlier_module_bias_to_fp16, dilations = var_5592_dilations_0, groups = var_5592_groups_0, pad = var_5592_pad_0, pad_type = var_5592_pad_type_0, strides = var_5592_strides_0, weight = layers_30_fc2_inlier_module_weight_to_fp16_palettized, x = input_247_cast_fp16)[name = tensor<string, []>("op_5592_cast_fp16")];
            tensor<string, []> var_5598_pad_type_0 = const()[name = tensor<string, []>("op_5598_pad_type_0"), val = tensor<string, []>("valid")];
            tensor<int32, [2]> var_5598_strides_0 = const()[name = tensor<string, []>("op_5598_strides_0"), val = tensor<int32, [2]>([1, 1])];
            tensor<int32, [4]> var_5598_pad_0 = const()[name = tensor<string, []>("op_5598_pad_0"), val = tensor<int32, [4]>([0, 0, 0, 0])];
            tensor<int32, [2]> var_5598_dilations_0 = const()[name = tensor<string, []>("op_5598_dilations_0"), val = tensor<int32, [2]>([1, 1])];
            tensor<int32, []> var_5598_groups_0 = const()[name = tensor<string, []>("op_5598_groups_0"), val = tensor<int32, []>(1)];
            tensor<fp16, [1280, 5120, 1, 1]> layers_30_fc2_outlier_module_weight_to_fp16_sparsified = constexpr_sparse_to_dense()[mask = tensor<uint8, [819200]>(BLOBFILE(path = tensor<string, []>("@model_path/weights/weight.bin"), offset = tensor<uint64, []>(408624832))), name = tensor<string, []>("layers_30_fc2_outlier_module_weight_to_fp16_sparsified"), nonzero_data = tensor<fp16, [30449]>(BLOBFILE(path = tensor<string, []>("@model_path/weights/weight.bin"), offset = tensor<uint64, []>(408563840))), shape = tensor<uint32, [4]>([1280, 5120, 1, 1])];
            tensor<fp16, [1, 1280, 1, 1500]> var_5598_cast_fp16 = conv(dilations = var_5598_dilations_0, groups = var_5598_groups_0, pad = var_5598_pad_0, pad_type = var_5598_pad_type_0, strides = var_5598_strides_0, weight = layers_30_fc2_outlier_module_weight_to_fp16_sparsified, x = input_247_cast_fp16)[name = tensor<string, []>("op_5598_cast_fp16")];
            tensor<fp16, [1, 1280, 1, 1500]> hidden_states_65_cast_fp16 = add(x = var_5592_cast_fp16, y = var_5598_cast_fp16)[name = tensor<string, []>("hidden_states_65_cast_fp16")];
            tensor<fp16, [1, 1280, 1, 1500]> inputs_125_cast_fp16 = add(x = inputs_123_cast_fp16, y = hidden_states_65_cast_fp16)[name = tensor<string, []>("inputs_125_cast_fp16")];
            tensor<int32, []> var_5608 = const()[name = tensor<string, []>("op_5608"), val = tensor<int32, []>(3)];
            tensor<int32, [1]> out_125_axes_0 = const()[name = tensor<string, []>("out_125_axes_0"), val = tensor<int32, [1]>([1])];
            tensor<fp16, []> var_5627_to_fp16 = const()[name = tensor<string, []>("op_5627_to_fp16"), val = tensor<fp16, []>(0x1.5p-17)];
            tensor<fp16, [1, 1280, 1, 1500]> out_125_cast_fp16 = layer_norm(axes = out_125_axes_0, epsilon = var_5627_to_fp16, x = inputs_125_cast_fp16)[name = tensor<string, []>("out_125_cast_fp16")];
            tensor<fp16, [1280]> obj_125_gamma_0_to_fp16 = const()[name = tensor<string, []>("obj_125_gamma_0_to_fp16"), val = tensor<fp16, [1280]>(BLOBFILE(path = tensor<string, []>("@model_path/weights/weight.bin"), offset = tensor<uint64, []>(409444096)))];
            tensor<fp16, [1280]> obj_125_beta_0_to_fp16 = const()[name = tensor<string, []>("obj_125_beta_0_to_fp16"), val = tensor<fp16, [1280]>(BLOBFILE(path = tensor<string, []>("@model_path/weights/weight.bin"), offset = tensor<uint64, []>(409446720)))];
            tensor<fp16, []> obj_125_epsilon_0_to_fp16 = const()[name = tensor<string, []>("obj_125_epsilon_0_to_fp16"), val = tensor<fp16, []>(0x1.5p-17)];
            tensor<fp16, [1, 1280, 1, 1500]> obj_125_cast_fp16 = batch_norm(beta = obj_125_beta_0_to_fp16, epsilon = obj_125_epsilon_0_to_fp16, gamma = obj_125_gamma_0_to_fp16, mean = var_97_to_fp16, variance = obj_1_variance_0_to_fp16, x = out_125_cast_fp16)[name = tensor<string, []>("obj_125_cast_fp16")];
            tensor<string, []> var_5649_pad_type_0 = const()[name = tensor<string, []>("op_5649_pad_type_0"), val = tensor<string, []>("valid")];
            tensor<int32, [2]> var_5649_strides_0 = const()[name = tensor<string, []>("op_5649_strides_0"), val = tensor<int32, [2]>([1, 1])];
            tensor<int32, [4]> var_5649_pad_0 = const()[name = tensor<string, []>("op_5649_pad_0"), val = tensor<int32, [4]>([0, 0, 0, 0])];
            tensor<int32, [2]> var_5649_dilations_0 = const()[name = tensor<string, []>("op_5649_dilations_0"), val = tensor<int32, [2]>([1, 1])];
            tensor<int32, []> var_5649_groups_0 = const()[name = tensor<string, []>("op_5649_groups_0"), val = tensor<int32, []>(1)];
            tensor<fp16, [1280, 1280, 1, 1]> layers_31_self_attn_q_proj_inlier_module_weight_to_fp16_palettized = constexpr_lut_to_dense()[indices = tensor<uint8, [819200]>(BLOBFILE(path = tensor<string, []>("@model_path/weights/weight.bin"), offset = tensor<uint64, []>(409449344))), lut = tensor<fp16, [16]>(BLOBFILE(path = tensor<string, []>("@model_path/weights/weight.bin"), offset = tensor<uint64, []>(410268608))), name = tensor<string, []>("layers_31_self_attn_q_proj_inlier_module_weight_to_fp16_palettized"), shape = tensor<uint32, [4]>([1280, 1280, 1, 1])];
            tensor<fp16, [1280]> layers_31_self_attn_q_proj_inlier_module_bias_to_fp16 = const()[name = tensor<string, []>("layers_31_self_attn_q_proj_inlier_module_bias_to_fp16"), val = tensor<fp16, [1280]>(BLOBFILE(path = tensor<string, []>("@model_path/weights/weight.bin"), offset = tensor<uint64, []>(410268736)))];
            tensor<fp16, [1, 1280, 1, 1500]> var_5649_cast_fp16 = conv(bias = layers_31_self_attn_q_proj_inlier_module_bias_to_fp16, dilations = var_5649_dilations_0, groups = var_5649_groups_0, pad = var_5649_pad_0, pad_type = var_5649_pad_type_0, strides = var_5649_strides_0, weight = layers_31_self_attn_q_proj_inlier_module_weight_to_fp16_palettized, x = obj_125_cast_fp16)[name = tensor<string, []>("op_5649_cast_fp16")];
            tensor<string, []> var_5655_pad_type_0 = const()[name = tensor<string, []>("op_5655_pad_type_0"), val = tensor<string, []>("valid")];
            tensor<int32, [2]> var_5655_strides_0 = const()[name = tensor<string, []>("op_5655_strides_0"), val = tensor<int32, [2]>([1, 1])];
            tensor<int32, [4]> var_5655_pad_0 = const()[name = tensor<string, []>("op_5655_pad_0"), val = tensor<int32, [4]>([0, 0, 0, 0])];
            tensor<int32, [2]> var_5655_dilations_0 = const()[name = tensor<string, []>("op_5655_dilations_0"), val = tensor<int32, [2]>([1, 1])];
            tensor<int32, []> var_5655_groups_0 = const()[name = tensor<string, []>("op_5655_groups_0"), val = tensor<int32, []>(1)];
            tensor<fp16, [1280, 1280, 1, 1]> layers_31_self_attn_q_proj_outlier_module_weight_to_fp16_sparsified = constexpr_sparse_to_dense()[mask = tensor<uint8, [204800]>(BLOBFILE(path = tensor<string, []>("@model_path/weights/weight.bin"), offset = tensor<uint64, []>(410290240))), name = tensor<string, []>("layers_31_self_attn_q_proj_outlier_module_weight_to_fp16_sparsified"), nonzero_data = tensor<fp16, [9377]>(BLOBFILE(path = tensor<string, []>("@model_path/weights/weight.bin"), offset = tensor<uint64, []>(410271360))), shape = tensor<uint32, [4]>([1280, 1280, 1, 1])];
            tensor<fp16, [1, 1280, 1, 1500]> var_5655_cast_fp16 = conv(dilations = var_5655_dilations_0, groups = var_5655_groups_0, pad = var_5655_pad_0, pad_type = var_5655_pad_type_0, strides = var_5655_strides_0, weight = layers_31_self_attn_q_proj_outlier_module_weight_to_fp16_sparsified, x = obj_125_cast_fp16)[name = tensor<string, []>("op_5655_cast_fp16")];
            tensor<fp16, [1, 1280, 1, 1500]> query_cast_fp16 = add(x = var_5649_cast_fp16, y = var_5655_cast_fp16)[name = tensor<string, []>("query_cast_fp16")];
            tensor<string, []> var_5664_pad_type_0 = const()[name = tensor<string, []>("op_5664_pad_type_0"), val = tensor<string, []>("valid")];
            tensor<int32, [2]> var_5664_strides_0 = const()[name = tensor<string, []>("op_5664_strides_0"), val = tensor<int32, [2]>([1, 1])];
            tensor<int32, [4]> var_5664_pad_0 = const()[name = tensor<string, []>("op_5664_pad_0"), val = tensor<int32, [4]>([0, 0, 0, 0])];
            tensor<int32, [2]> var_5664_dilations_0 = const()[name = tensor<string, []>("op_5664_dilations_0"), val = tensor<int32, [2]>([1, 1])];
            tensor<int32, []> var_5664_groups_0 = const()[name = tensor<string, []>("op_5664_groups_0"), val = tensor<int32, []>(1)];
            tensor<fp16, [1280, 1280, 1, 1]> layers_31_self_attn_k_proj_inlier_module_weight_to_fp16_palettized = constexpr_lut_to_dense()[indices = tensor<uint8, [819200]>(BLOBFILE(path = tensor<string, []>("@model_path/weights/weight.bin"), offset = tensor<uint64, []>(410495104))), lut = tensor<fp16, [16]>(BLOBFILE(path = tensor<string, []>("@model_path/weights/weight.bin"), offset = tensor<uint64, []>(411314368))), name = tensor<string, []>("layers_31_self_attn_k_proj_inlier_module_weight_to_fp16_palettized"), shape = tensor<uint32, [4]>([1280, 1280, 1, 1])];
            tensor<fp16, [1, 1280, 1, 1500]> var_5664_cast_fp16 = conv(dilations = var_5664_dilations_0, groups = var_5664_groups_0, pad = var_5664_pad_0, pad_type = var_5664_pad_type_0, strides = var_5664_strides_0, weight = layers_31_self_attn_k_proj_inlier_module_weight_to_fp16_palettized, x = obj_125_cast_fp16)[name = tensor<string, []>("op_5664_cast_fp16")];
            tensor<string, []> var_5670_pad_type_0 = const()[name = tensor<string, []>("op_5670_pad_type_0"), val = tensor<string, []>("valid")];
            tensor<int32, [2]> var_5670_strides_0 = const()[name = tensor<string, []>("op_5670_strides_0"), val = tensor<int32, [2]>([1, 1])];
            tensor<int32, [4]> var_5670_pad_0 = const()[name = tensor<string, []>("op_5670_pad_0"), val = tensor<int32, [4]>([0, 0, 0, 0])];
            tensor<int32, [2]> var_5670_dilations_0 = const()[name = tensor<string, []>("op_5670_dilations_0"), val = tensor<int32, [2]>([1, 1])];
            tensor<int32, []> var_5670_groups_0 = const()[name = tensor<string, []>("op_5670_groups_0"), val = tensor<int32, []>(1)];
            tensor<fp16, [1280, 1280, 1, 1]> layers_31_self_attn_k_proj_outlier_module_weight_to_fp16_sparsified = constexpr_sparse_to_dense()[mask = tensor<uint8, [204800]>(BLOBFILE(path = tensor<string, []>("@model_path/weights/weight.bin"), offset = tensor<uint64, []>(411336768))), name = tensor<string, []>("layers_31_self_attn_k_proj_outlier_module_weight_to_fp16_sparsified"), nonzero_data = tensor<fp16, [11093]>(BLOBFILE(path = tensor<string, []>("@model_path/weights/weight.bin"), offset = tensor<uint64, []>(411314496))), shape = tensor<uint32, [4]>([1280, 1280, 1, 1])];
            tensor<fp16, [1, 1280, 1, 1500]> var_5670_cast_fp16 = conv(dilations = var_5670_dilations_0, groups = var_5670_groups_0, pad = var_5670_pad_0, pad_type = var_5670_pad_type_0, strides = var_5670_strides_0, weight = layers_31_self_attn_k_proj_outlier_module_weight_to_fp16_sparsified, x = obj_125_cast_fp16)[name = tensor<string, []>("op_5670_cast_fp16")];
            tensor<fp16, [1, 1280, 1, 1500]> key_cast_fp16 = add(x = var_5664_cast_fp16, y = var_5670_cast_fp16)[name = tensor<string, []>("key_cast_fp16")];
            tensor<string, []> var_5680_pad_type_0 = const()[name = tensor<string, []>("op_5680_pad_type_0"), val = tensor<string, []>("valid")];
            tensor<int32, [2]> var_5680_strides_0 = const()[name = tensor<string, []>("op_5680_strides_0"), val = tensor<int32, [2]>([1, 1])];
            tensor<int32, [4]> var_5680_pad_0 = const()[name = tensor<string, []>("op_5680_pad_0"), val = tensor<int32, [4]>([0, 0, 0, 0])];
            tensor<int32, [2]> var_5680_dilations_0 = const()[name = tensor<string, []>("op_5680_dilations_0"), val = tensor<int32, [2]>([1, 1])];
            tensor<int32, []> var_5680_groups_0 = const()[name = tensor<string, []>("op_5680_groups_0"), val = tensor<int32, []>(1)];
            tensor<fp16, [1280, 1280, 1, 1]> layers_31_self_attn_v_proj_inlier_module_weight_to_fp16_palettized = constexpr_lut_to_dense()[indices = tensor<uint8, [819200]>(BLOBFILE(path = tensor<string, []>("@model_path/weights/weight.bin"), offset = tensor<uint64, []>(411541632))), lut = tensor<fp16, [16]>(BLOBFILE(path = tensor<string, []>("@model_path/weights/weight.bin"), offset = tensor<uint64, []>(412360896))), name = tensor<string, []>("layers_31_self_attn_v_proj_inlier_module_weight_to_fp16_palettized"), shape = tensor<uint32, [4]>([1280, 1280, 1, 1])];
            tensor<fp16, [1280]> layers_31_self_attn_v_proj_inlier_module_bias_to_fp16 = const()[name = tensor<string, []>("layers_31_self_attn_v_proj_inlier_module_bias_to_fp16"), val = tensor<fp16, [1280]>(BLOBFILE(path = tensor<string, []>("@model_path/weights/weight.bin"), offset = tensor<uint64, []>(412361024)))];
            tensor<fp16, [1, 1280, 1, 1500]> var_5680_cast_fp16 = conv(bias = layers_31_self_attn_v_proj_inlier_module_bias_to_fp16, dilations = var_5680_dilations_0, groups = var_5680_groups_0, pad = var_5680_pad_0, pad_type = var_5680_pad_type_0, strides = var_5680_strides_0, weight = layers_31_self_attn_v_proj_inlier_module_weight_to_fp16_palettized, x = obj_125_cast_fp16)[name = tensor<string, []>("op_5680_cast_fp16")];
            tensor<string, []> var_5686_pad_type_0 = const()[name = tensor<string, []>("op_5686_pad_type_0"), val = tensor<string, []>("valid")];
            tensor<int32, [2]> var_5686_strides_0 = const()[name = tensor<string, []>("op_5686_strides_0"), val = tensor<int32, [2]>([1, 1])];
            tensor<int32, [4]> var_5686_pad_0 = const()[name = tensor<string, []>("op_5686_pad_0"), val = tensor<int32, [4]>([0, 0, 0, 0])];
            tensor<int32, [2]> var_5686_dilations_0 = const()[name = tensor<string, []>("op_5686_dilations_0"), val = tensor<int32, [2]>([1, 1])];
            tensor<int32, []> var_5686_groups_0 = const()[name = tensor<string, []>("op_5686_groups_0"), val = tensor<int32, []>(1)];
            tensor<fp16, [1280, 1280, 1, 1]> layers_31_self_attn_v_proj_outlier_module_weight_to_fp16_sparsified = constexpr_sparse_to_dense()[mask = tensor<uint8, [204800]>(BLOBFILE(path = tensor<string, []>("@model_path/weights/weight.bin"), offset = tensor<uint64, []>(412376512))), name = tensor<string, []>("layers_31_self_attn_v_proj_outlier_module_weight_to_fp16_sparsified"), nonzero_data = tensor<fp16, [6384]>(BLOBFILE(path = tensor<string, []>("@model_path/weights/weight.bin"), offset = tensor<uint64, []>(412363648))), shape = tensor<uint32, [4]>([1280, 1280, 1, 1])];
            tensor<fp16, [1, 1280, 1, 1500]> var_5686_cast_fp16 = conv(dilations = var_5686_dilations_0, groups = var_5686_groups_0, pad = var_5686_pad_0, pad_type = var_5686_pad_type_0, strides = var_5686_strides_0, weight = layers_31_self_attn_v_proj_outlier_module_weight_to_fp16_sparsified, x = obj_125_cast_fp16)[name = tensor<string, []>("op_5686_cast_fp16")];
            tensor<fp16, [1, 1280, 1, 1500]> value_cast_fp16 = add(x = var_5680_cast_fp16, y = var_5686_cast_fp16)[name = tensor<string, []>("value_cast_fp16")];
            tensor<int32, [4]> var_5689 = const()[name = tensor<string, []>("op_5689"), val = tensor<int32, [4]>([1, 20, 64, -1])];
            tensor<fp16, [1, 20, 64, 1500]> mh_q_cast_fp16 = reshape(shape = var_5689, x = query_cast_fp16)[name = tensor<string, []>("mh_q_cast_fp16")];
            tensor<fp16, []> var_5691_to_fp16 = const()[name = tensor<string, []>("op_5691_to_fp16"), val = tensor<fp16, []>(0x1p-3)];
            tensor<fp16, [1, 20, 64, 1500]> var_5692_cast_fp16 = mul(x = mh_q_cast_fp16, y = var_5691_to_fp16)[name = tensor<string, []>("op_5692_cast_fp16")];
            tensor<int32, [4]> var_5693 = const()[name = tensor<string, []>("op_5693"), val = tensor<int32, [4]>([1, 20, 64, -1])];
            tensor<fp16, [1, 20, 64, 1500]> var_5694_cast_fp16 = reshape(shape = var_5693, x = key_cast_fp16)[name = tensor<string, []>("op_5694_cast_fp16")];
            tensor<bool, []> mh_w_transpose_x_0 = const()[name = tensor<string, []>("mh_w_transpose_x_0"), val = tensor<bool, []>(true)];
            tensor<bool, []> mh_w_transpose_y_0 = const()[name = tensor<string, []>("mh_w_transpose_y_0"), val = tensor<bool, []>(false)];
            tensor<fp16, [1, 20, 1500, 1500]> mh_w_cast_fp16 = matmul(transpose_x = mh_w_transpose_x_0, transpose_y = mh_w_transpose_y_0, x = var_5692_cast_fp16, y = var_5694_cast_fp16)[name = tensor<string, []>("mh_w_cast_fp16")];
            tensor<fp16, [1, 20, 1500, 1500]> var_5697_cast_fp16 = softmax(axis = var_5608, x = mh_w_cast_fp16)[name = tensor<string, []>("op_5697_cast_fp16")];
            tensor<int32, [4]> var_5698 = const()[name = tensor<string, []>("op_5698"), val = tensor<int32, [4]>([1, 20, 64, -1])];
            tensor<fp16, [1, 20, 64, 1500]> var_5699_cast_fp16 = reshape(shape = var_5698, x = value_cast_fp16)[name = tensor<string, []>("op_5699_cast_fp16")];
            tensor<bool, []> attn_transpose_x_0 = const()[name = tensor<string, []>("attn_transpose_x_0"), val = tensor<bool, []>(false)];
            tensor<bool, []> attn_transpose_y_0 = const()[name = tensor<string, []>("attn_transpose_y_0"), val = tensor<bool, []>(true)];
            tensor<fp16, [1, 20, 64, 1500]> attn_cast_fp16 = matmul(transpose_x = attn_transpose_x_0, transpose_y = attn_transpose_y_0, x = var_5699_cast_fp16, y = var_5697_cast_fp16)[name = tensor<string, []>("attn_cast_fp16")];
            tensor<int32, [4]> var_5702 = const()[name = tensor<string, []>("op_5702"), val = tensor<int32, [4]>([1, 1280, 1, -1])];
            tensor<fp16, [1, 1280, 1, 1500]> input_249_cast_fp16 = reshape(shape = var_5702, x = attn_cast_fp16)[name = tensor<string, []>("input_249_cast_fp16")];
            tensor<string, []> var_5712_pad_type_0 = const()[name = tensor<string, []>("op_5712_pad_type_0"), val = tensor<string, []>("valid")];
            tensor<int32, [2]> var_5712_strides_0 = const()[name = tensor<string, []>("op_5712_strides_0"), val = tensor<int32, [2]>([1, 1])];
            tensor<int32, [4]> var_5712_pad_0 = const()[name = tensor<string, []>("op_5712_pad_0"), val = tensor<int32, [4]>([0, 0, 0, 0])];
            tensor<int32, [2]> var_5712_dilations_0 = const()[name = tensor<string, []>("op_5712_dilations_0"), val = tensor<int32, [2]>([1, 1])];
            tensor<int32, []> var_5712_groups_0 = const()[name = tensor<string, []>("op_5712_groups_0"), val = tensor<int32, []>(1)];
            tensor<fp16, [1280, 1280, 1, 1]> layers_31_self_attn_o_proj_inlier_module_weight_to_fp16_palettized = constexpr_lut_to_dense()[indices = tensor<uint8, [819200]>(BLOBFILE(path = tensor<string, []>("@model_path/weights/weight.bin"), offset = tensor<uint64, []>(412581376))), lut = tensor<fp16, [16]>(BLOBFILE(path = tensor<string, []>("@model_path/weights/weight.bin"), offset = tensor<uint64, []>(413400640))), name = tensor<string, []>("layers_31_self_attn_o_proj_inlier_module_weight_to_fp16_palettized"), shape = tensor<uint32, [4]>([1280, 1280, 1, 1])];
            tensor<fp16, [1280]> layers_31_self_attn_o_proj_inlier_module_bias_to_fp16 = const()[name = tensor<string, []>("layers_31_self_attn_o_proj_inlier_module_bias_to_fp16"), val = tensor<fp16, [1280]>(BLOBFILE(path = tensor<string, []>("@model_path/weights/weight.bin"), offset = tensor<uint64, []>(413400768)))];
            tensor<fp16, [1, 1280, 1, 1500]> var_5712_cast_fp16 = conv(bias = layers_31_self_attn_o_proj_inlier_module_bias_to_fp16, dilations = var_5712_dilations_0, groups = var_5712_groups_0, pad = var_5712_pad_0, pad_type = var_5712_pad_type_0, strides = var_5712_strides_0, weight = layers_31_self_attn_o_proj_inlier_module_weight_to_fp16_palettized, x = input_249_cast_fp16)[name = tensor<string, []>("op_5712_cast_fp16")];
            tensor<string, []> var_5718_pad_type_0 = const()[name = tensor<string, []>("op_5718_pad_type_0"), val = tensor<string, []>("valid")];
            tensor<int32, [2]> var_5718_strides_0 = const()[name = tensor<string, []>("op_5718_strides_0"), val = tensor<int32, [2]>([1, 1])];
            tensor<int32, [4]> var_5718_pad_0 = const()[name = tensor<string, []>("op_5718_pad_0"), val = tensor<int32, [4]>([0, 0, 0, 0])];
            tensor<int32, [2]> var_5718_dilations_0 = const()[name = tensor<string, []>("op_5718_dilations_0"), val = tensor<int32, [2]>([1, 1])];
            tensor<int32, []> var_5718_groups_0 = const()[name = tensor<string, []>("op_5718_groups_0"), val = tensor<int32, []>(1)];
            tensor<fp16, [1280, 1280, 1, 1]> layers_31_self_attn_o_proj_outlier_module_weight_to_fp16_sparsified = constexpr_sparse_to_dense()[mask = tensor<uint8, [204800]>(BLOBFILE(path = tensor<string, []>("@model_path/weights/weight.bin"), offset = tensor<uint64, []>(413416000))), name = tensor<string, []>("layers_31_self_attn_o_proj_outlier_module_weight_to_fp16_sparsified"), nonzero_data = tensor<fp16, [6256]>(BLOBFILE(path = tensor<string, []>("@model_path/weights/weight.bin"), offset = tensor<uint64, []>(413403392))), shape = tensor<uint32, [4]>([1280, 1280, 1, 1])];
            tensor<fp16, [1, 1280, 1, 1500]> var_5718_cast_fp16 = conv(dilations = var_5718_dilations_0, groups = var_5718_groups_0, pad = var_5718_pad_0, pad_type = var_5718_pad_type_0, strides = var_5718_strides_0, weight = layers_31_self_attn_o_proj_outlier_module_weight_to_fp16_sparsified, x = input_249_cast_fp16)[name = tensor<string, []>("op_5718_cast_fp16")];
            tensor<fp16, [1, 1280, 1, 1500]> obj_cast_fp16 = add(x = var_5712_cast_fp16, y = var_5718_cast_fp16)[name = tensor<string, []>("obj_cast_fp16")];
            tensor<fp16, [1, 1280, 1, 1500]> inputs_127_cast_fp16 = add(x = inputs_125_cast_fp16, y = obj_cast_fp16)[name = tensor<string, []>("inputs_127_cast_fp16")];
            tensor<int32, [1]> out_127_axes_0 = const()[name = tensor<string, []>("out_127_axes_0"), val = tensor<int32, [1]>([1])];
            tensor<fp16, []> var_5729_to_fp16 = const()[name = tensor<string, []>("op_5729_to_fp16"), val = tensor<fp16, []>(0x1.5p-17)];
            tensor<fp16, [1, 1280, 1, 1500]> out_127_cast_fp16 = layer_norm(axes = out_127_axes_0, epsilon = var_5729_to_fp16, x = inputs_127_cast_fp16)[name = tensor<string, []>("out_127_cast_fp16")];
            tensor<fp16, [1280]> input_251_gamma_0_to_fp16 = const()[name = tensor<string, []>("input_251_gamma_0_to_fp16"), val = tensor<fp16, [1280]>(BLOBFILE(path = tensor<string, []>("@model_path/weights/weight.bin"), offset = tensor<uint64, []>(413620864)))];
            tensor<fp16, [1280]> input_251_beta_0_to_fp16 = const()[name = tensor<string, []>("input_251_beta_0_to_fp16"), val = tensor<fp16, [1280]>(BLOBFILE(path = tensor<string, []>("@model_path/weights/weight.bin"), offset = tensor<uint64, []>(413623488)))];
            tensor<fp16, []> input_251_epsilon_0_to_fp16 = const()[name = tensor<string, []>("input_251_epsilon_0_to_fp16"), val = tensor<fp16, []>(0x1.5p-17)];
            tensor<fp16, [1, 1280, 1, 1500]> input_251_cast_fp16 = batch_norm(beta = input_251_beta_0_to_fp16, epsilon = input_251_epsilon_0_to_fp16, gamma = input_251_gamma_0_to_fp16, mean = var_97_to_fp16, variance = obj_1_variance_0_to_fp16, x = out_127_cast_fp16)[name = tensor<string, []>("input_251_cast_fp16")];
            tensor<string, []> var_5747_pad_type_0 = const()[name = tensor<string, []>("op_5747_pad_type_0"), val = tensor<string, []>("valid")];
            tensor<int32, [2]> var_5747_strides_0 = const()[name = tensor<string, []>("op_5747_strides_0"), val = tensor<int32, [2]>([1, 1])];
            tensor<int32, [4]> var_5747_pad_0 = const()[name = tensor<string, []>("op_5747_pad_0"), val = tensor<int32, [4]>([0, 0, 0, 0])];
            tensor<int32, [2]> var_5747_dilations_0 = const()[name = tensor<string, []>("op_5747_dilations_0"), val = tensor<int32, [2]>([1, 1])];
            tensor<int32, []> var_5747_groups_0 = const()[name = tensor<string, []>("op_5747_groups_0"), val = tensor<int32, []>(1)];
            tensor<fp16, [5120, 1280, 1, 1]> layers_31_fc1_inlier_module_weight_to_fp16_palettized = constexpr_lut_to_dense()[indices = tensor<uint8, [3276800]>(BLOBFILE(path = tensor<string, []>("@model_path/weights/weight.bin"), offset = tensor<uint64, []>(413626112))), lut = tensor<fp16, [16]>(BLOBFILE(path = tensor<string, []>("@model_path/weights/weight.bin"), offset = tensor<uint64, []>(416902976))), name = tensor<string, []>("layers_31_fc1_inlier_module_weight_to_fp16_palettized"), shape = tensor<uint32, [4]>([5120, 1280, 1, 1])];
            tensor<fp16, [5120]> layers_31_fc1_inlier_module_bias_to_fp16 = const()[name = tensor<string, []>("layers_31_fc1_inlier_module_bias_to_fp16"), val = tensor<fp16, [5120]>(BLOBFILE(path = tensor<string, []>("@model_path/weights/weight.bin"), offset = tensor<uint64, []>(416903104)))];
            tensor<fp16, [1, 5120, 1, 1500]> var_5747_cast_fp16 = conv(bias = layers_31_fc1_inlier_module_bias_to_fp16, dilations = var_5747_dilations_0, groups = var_5747_groups_0, pad = var_5747_pad_0, pad_type = var_5747_pad_type_0, strides = var_5747_strides_0, weight = layers_31_fc1_inlier_module_weight_to_fp16_palettized, x = input_251_cast_fp16)[name = tensor<string, []>("op_5747_cast_fp16")];
            tensor<string, []> var_5753_pad_type_0 = const()[name = tensor<string, []>("op_5753_pad_type_0"), val = tensor<string, []>("valid")];
            tensor<int32, [2]> var_5753_strides_0 = const()[name = tensor<string, []>("op_5753_strides_0"), val = tensor<int32, [2]>([1, 1])];
            tensor<int32, [4]> var_5753_pad_0 = const()[name = tensor<string, []>("op_5753_pad_0"), val = tensor<int32, [4]>([0, 0, 0, 0])];
            tensor<int32, [2]> var_5753_dilations_0 = const()[name = tensor<string, []>("op_5753_dilations_0"), val = tensor<int32, [2]>([1, 1])];
            tensor<int32, []> var_5753_groups_0 = const()[name = tensor<string, []>("op_5753_groups_0"), val = tensor<int32, []>(1)];
            tensor<fp16, [5120, 1280, 1, 1]> layers_31_fc1_outlier_module_weight_to_fp16_sparsified = constexpr_sparse_to_dense()[mask = tensor<uint8, [819200]>(BLOBFILE(path = tensor<string, []>("@model_path/weights/weight.bin"), offset = tensor<uint64, []>(416975104))), name = tensor<string, []>("layers_31_fc1_outlier_module_weight_to_fp16_sparsified"), nonzero_data = tensor<fp16, [30796]>(BLOBFILE(path = tensor<string, []>("@model_path/weights/weight.bin"), offset = tensor<uint64, []>(416913408))), shape = tensor<uint32, [4]>([5120, 1280, 1, 1])];
            tensor<fp16, [1, 5120, 1, 1500]> var_5753_cast_fp16 = conv(dilations = var_5753_dilations_0, groups = var_5753_groups_0, pad = var_5753_pad_0, pad_type = var_5753_pad_type_0, strides = var_5753_strides_0, weight = layers_31_fc1_outlier_module_weight_to_fp16_sparsified, x = input_251_cast_fp16)[name = tensor<string, []>("op_5753_cast_fp16")];
            tensor<fp16, [1, 5120, 1, 1500]> input_253_cast_fp16 = add(x = var_5747_cast_fp16, y = var_5753_cast_fp16)[name = tensor<string, []>("input_253_cast_fp16")];
            tensor<string, []> input_mode_0 = const()[name = tensor<string, []>("input_mode_0"), val = tensor<string, []>("EXACT")];
            tensor<fp16, [1, 5120, 1, 1500]> input_cast_fp16 = gelu(mode = input_mode_0, x = input_253_cast_fp16)[name = tensor<string, []>("input_cast_fp16")];
            tensor<string, []> var_5764_pad_type_0 = const()[name = tensor<string, []>("op_5764_pad_type_0"), val = tensor<string, []>("valid")];
            tensor<int32, [2]> var_5764_strides_0 = const()[name = tensor<string, []>("op_5764_strides_0"), val = tensor<int32, [2]>([1, 1])];
            tensor<int32, [4]> var_5764_pad_0 = const()[name = tensor<string, []>("op_5764_pad_0"), val = tensor<int32, [4]>([0, 0, 0, 0])];
            tensor<int32, [2]> var_5764_dilations_0 = const()[name = tensor<string, []>("op_5764_dilations_0"), val = tensor<int32, [2]>([1, 1])];
            tensor<int32, []> var_5764_groups_0 = const()[name = tensor<string, []>("op_5764_groups_0"), val = tensor<int32, []>(1)];
            tensor<fp16, [1280, 5120, 1, 1]> layers_31_fc2_inlier_module_weight_to_fp16_palettized = constexpr_lut_to_dense()[indices = tensor<uint8, [3276800]>(BLOBFILE(path = tensor<string, []>("@model_path/weights/weight.bin"), offset = tensor<uint64, []>(417794368))), lut = tensor<fp16, [16]>(BLOBFILE(path = tensor<string, []>("@model_path/weights/weight.bin"), offset = tensor<uint64, []>(421071232))), name = tensor<string, []>("layers_31_fc2_inlier_module_weight_to_fp16_palettized"), shape = tensor<uint32, [4]>([1280, 5120, 1, 1])];
            tensor<fp16, [1280]> layers_31_fc2_inlier_module_bias_to_fp16 = const()[name = tensor<string, []>("layers_31_fc2_inlier_module_bias_to_fp16"), val = tensor<fp16, [1280]>(BLOBFILE(path = tensor<string, []>("@model_path/weights/weight.bin"), offset = tensor<uint64, []>(421071360)))];
            tensor<fp16, [1, 1280, 1, 1500]> var_5764_cast_fp16 = conv(bias = layers_31_fc2_inlier_module_bias_to_fp16, dilations = var_5764_dilations_0, groups = var_5764_groups_0, pad = var_5764_pad_0, pad_type = var_5764_pad_type_0, strides = var_5764_strides_0, weight = layers_31_fc2_inlier_module_weight_to_fp16_palettized, x = input_cast_fp16)[name = tensor<string, []>("op_5764_cast_fp16")];
            tensor<string, []> var_5770_pad_type_0 = const()[name = tensor<string, []>("op_5770_pad_type_0"), val = tensor<string, []>("valid")];
            tensor<int32, [2]> var_5770_strides_0 = const()[name = tensor<string, []>("op_5770_strides_0"), val = tensor<int32, [2]>([1, 1])];
            tensor<int32, [4]> var_5770_pad_0 = const()[name = tensor<string, []>("op_5770_pad_0"), val = tensor<int32, [4]>([0, 0, 0, 0])];
            tensor<int32, [2]> var_5770_dilations_0 = const()[name = tensor<string, []>("op_5770_dilations_0"), val = tensor<int32, [2]>([1, 1])];
            tensor<int32, []> var_5770_groups_0 = const()[name = tensor<string, []>("op_5770_groups_0"), val = tensor<int32, []>(1)];
            tensor<fp16, [1280, 5120, 1, 1]> layers_31_fc2_outlier_module_weight_to_fp16_sparsified = constexpr_sparse_to_dense()[mask = tensor<uint8, [819200]>(BLOBFILE(path = tensor<string, []>("@model_path/weights/weight.bin"), offset = tensor<uint64, []>(421144256))), name = tensor<string, []>("layers_31_fc2_outlier_module_weight_to_fp16_sparsified"), nonzero_data = tensor<fp16, [35103]>(BLOBFILE(path = tensor<string, []>("@model_path/weights/weight.bin"), offset = tensor<uint64, []>(421073984))), shape = tensor<uint32, [4]>([1280, 5120, 1, 1])];
            tensor<fp16, [1, 1280, 1, 1500]> var_5770_cast_fp16 = conv(dilations = var_5770_dilations_0, groups = var_5770_groups_0, pad = var_5770_pad_0, pad_type = var_5770_pad_type_0, strides = var_5770_strides_0, weight = layers_31_fc2_outlier_module_weight_to_fp16_sparsified, x = input_cast_fp16)[name = tensor<string, []>("op_5770_cast_fp16")];
            tensor<fp16, [1, 1280, 1, 1500]> hidden_states_cast_fp16 = add(x = var_5764_cast_fp16, y = var_5770_cast_fp16)[name = tensor<string, []>("hidden_states_cast_fp16")];
            tensor<fp16, [1, 1280, 1, 1500]> inputs_cast_fp16 = add(x = inputs_127_cast_fp16, y = hidden_states_cast_fp16)[name = tensor<string, []>("inputs_cast_fp16")];
            tensor<int32, [1]> out_axes_0 = const()[name = tensor<string, []>("out_axes_0"), val = tensor<int32, [1]>([1])];
            tensor<fp16, []> var_5785_to_fp16 = const()[name = tensor<string, []>("op_5785_to_fp16"), val = tensor<fp16, []>(0x1.5p-17)];
            tensor<fp16, [1, 1280, 1, 1500]> out_cast_fp16 = layer_norm(axes = out_axes_0, epsilon = var_5785_to_fp16, x = inputs_cast_fp16)[name = tensor<string, []>("out_cast_fp16")];
            tensor<fp16, [1280]> encoder_output_embeds_type_fp32_gamma_0_to_fp16 = const()[name = tensor<string, []>("encoder_output_embeds_type_fp32_gamma_0_to_fp16"), val = tensor<fp16, [1280]>(BLOBFILE(path = tensor<string, []>("@model_path/weights/weight.bin"), offset = tensor<uint64, []>(421963520)))];
            tensor<fp16, [1280]> encoder_output_embeds_type_fp32_beta_0_to_fp16 = const()[name = tensor<string, []>("encoder_output_embeds_type_fp32_beta_0_to_fp16"), val = tensor<fp16, [1280]>(BLOBFILE(path = tensor<string, []>("@model_path/weights/weight.bin"), offset = tensor<uint64, []>(421966144)))];
            tensor<fp16, []> encoder_output_embeds_type_fp32_epsilon_0_to_fp16 = const()[name = tensor<string, []>("encoder_output_embeds_type_fp32_epsilon_0_to_fp16"), val = tensor<fp16, []>(0x1.5p-17)];
            tensor<fp16, [1, 1280, 1, 1500]> encoder_output_embeds = batch_norm(beta = encoder_output_embeds_type_fp32_beta_0_to_fp16, epsilon = encoder_output_embeds_type_fp32_epsilon_0_to_fp16, gamma = encoder_output_embeds_type_fp32_gamma_0_to_fp16, mean = var_97_to_fp16, variance = obj_1_variance_0_to_fp16, x = out_cast_fp16)[name = tensor<string, []>("encoder_output_embeds_type_fp32_cast_fp16")];
        } -> (encoder_output_embeds);
}